eeg_results/checkpoint-30/adapter_model.safetensors (safetensors, 296440 bytes, 12 tensors)

base_model.model.transformer.h.0.attn.c_attn.lora_A.weight f4 [4, 768]
00000000: 293f a93c b432 acbc 7ffa 9cbb 1ae5 9c3c
00000010: 2c4d ecbc 69f8 9a3c 174e 6d3b 63e3 e2bb
00000020: 0421 c23c 45c4 93bc 1e9b c43c f1eb d4bc
00000030: bbe5 4c3a f175 8e3b 6116 95bc 8bd4 a9bc
00000040: 0168 b93c d02a ac3a 2e6b 86bc 7bdc a03b
00000050: cb18 ca3c 5b6e c23c 5f0a cbbb 9333 9fbc
00000060: d749 8dbc ff2b ac3c b5f3 48bc 72a2 4abb
00000070: b774 72bc ffc0 aabc 69bb 01bd 41ef 023d
00000080: 930f e6bb 5bd2 da3c 91a2 393a 8342 843c
00000090: 1eb9 50bc a2f7 91bc 408e c2bb aec5 d13c
000000a0: cf95 00bd afbd 11bc 91a6 8ebc 2401 a4bc
000000b0: 63fe d7bc 2182 68bb 49db cfbc 5e41 11bd
000000c0: dfa8 fa3c adf9 a73c ba8c 323c 22d8 d6bc
000000d0: b0a6 123c 8d1d a4bc a899 0bbd ac39 033d
000000e0: 3447 d1ba a2a7 0cbd 4193 bb3c cf16 23bc
000000f0: 8c2b 1bbb a43a a0bb bcf6 d1bc db5f 7bbc
00000100: 8112 b8bc 4e52 0dbd 3036 9d3c 17c8 bd3c
00000110: 5ecd 73bc bbe0 04bd 9f96 5e3a c25b c33b
00000120: 040e 10bd 0e65 b33c 35eb 13bd f013 05bd
00000130: 69d9 813c 8daf a73c fa73 943b 66d5 bebb
00000140: d6a9 9abc 232c d6ba 703d 083d 11e1 933c
00000150: 38b0 d9bc 4ea4 c7bc b98b 77bb fa83 b83c
00000160: 651f c9bc 961d 073d 40ee 38bc 799d 69bc
00000170: 894d 01bd 0c61 f33c b057 e43b c721 0abd
00000180: 1dcf cf3c dd7a 67bc 7e52 8abc 704d 8a3c
00000190: 082e f4bc e0bf 00bd 4c01 d0bc 6bca 0d3d
000001a0: f2b4 09bd eb28 d2bb 2598 dbbb dc88 8dbb
000001b0: 9ba4 6abc c3dd c0bc 0084 e0bc d029 dfbc
000001c0: edfd 8bbc 75ad 97bb 800b e63c 6d01 bc3b
000001d0: 8ecf 083d 8f6a d1bc 6e55 e03b e156 10bd
000001e0: 12f5 dcbb e04e 353c 236e 82bc 027c c3bc
000001f0: 4a86 0c3c f452 acbc 8722 1bbc 0b78 08bd
00000200: 6599 c2bc ee04 94bc ba21 44bb e7f3 99bc
00000210: 511c b33c 187a 0e3c dbe9 2dbb dbda dd3c
00000220: 6586 dd3c 1632 d9bc 7d81 133d 4268 a63c
00000230: 2e7c 9ebc b60a db3c ba8d a2bc 0940 33bc
00000240: a058 a3bc 3590 01bd 5c31 113d 87b7 203c
00000250: b366 d6bc 448c c2bc 45ea 58b9 587c 393c
00000260: e62c ee3c 9aee 833c 9275 fa3c 4798 b53b
00000270: f3bd c73c 7cc6 2cbc a620 58bc ab05 c03b
00000280: 6817 e13c 66df 3939 1949 a5bc de1d 9a3c
00000290: e3cc e0bc ee69 05bc ddbf 333c 05cf 00bd
000002a0: ae53 14bc a478 0cbd 6c30 023d d5e9 c4bb
000002b0: 09de 313c 81fd fabc 3216 2dbc ed3d 393c
000002c0: a2c6 73bc 7f62 f2bc a348 d0bc cbd7 6f3c
000002d0: 53e6 c1bb 9b57 4f3c 3711 cdbc 16f4 113d
000002e0: 76b7 023d 18e3 63bc c314 9b3c 4b2f 833c
000002f0: c9a8 1cbc e032 ffbc b413 f1bc 707b 0bbd
00000300: 71a9 073d 3577 9a3c a273 0e3d 4979 653c
00000310: 1014 cc3c 8927 c43c 7c7c 0ebc a997 d33c
00000320: 83e8 9bbc 7b9d 56bc 4f5b 05bc 51d7 2c3c
00000330: 2f20 dabc 43af fa3c 2e13 8bb8 3631 12bd
00000340: 8fea 8d3c 28c5 5b3c 89fa 7e3c 32fc 8ebc
00000350: e054 0dbd 1237 113c dcaa 063d 060f 093d
00000360: fe57 bebc 3d9c 96bc 4465 973b 78d7 e83b
00000370: 8e9e de3c 5943 b8bc c9ec da3b 8b7e 943c
00000380: e342 a6ba 3f5f 133d 0dc0 7b3c d0af 95bc
00000390: c61b 223c 15f7 b33c f452 ddbc cbae 263c
000003a0: 344c c93c 6452 50bb afd5 27bb d7f5 91bc
000003b0: eae8 80bb 015b 85bc 24c1 dfbb 476a d83c
000003c0: f90b ea3a 48f0 073d c96b e13c 6c16 ca3b
000003d0: 18a2 27bc 3110 f2bc 0556 aebc 36ff 903c
000003e0: 42ee f83c caa0 efbc 426c 12bd ab2b 0fbd
000003f0: d641 0fbd 89f3 0f3c c3f2 e23c a4a5 fe3c
0.02066 -0.02102027 -0.0047906036 0.019152213 -0.028845392 0.01891728 0.0036209875 -0.0069240793
0.023697384 -0.018037925 0.023999747 -0.025991412 0.0007816215 0.004347556 -0.018199148 -0.020731231
0.0226326 0.0013135318 -0.01640853 0.004909096 0.024670025 0.023734262 -0.0061963047 -0.019433772
-0.017247124 0.021017073 -0.0122651355 -0.003091958 -0.014798335 -0.02084398 -0.03167287 0.03196645
-0.0070208996 0.026711633 0.0007081414 0.016144997 -0.012739448 -0.017818276 -0.0059373677 0.025606956
-0.03139287 -0.008895322 -0.01741341 -0.020020075 -0.026366418 -0.0035477953 -0.025373118 -0.03546273
0.030598102 0.020504797 0.01089781 -0.026226107 0.008950874 -0.020033622 -0.034082085 0.032037422
-0.0015966655 -0.034339555 0.022897365 -0.009954168 -0.002367708 -0.004889803 -0.025630347 -0.015342678
-0.02246976 -0.03450232 0.019190878 0.0231667 -0.014880506 -0.032440882 0.0008491072 0.005961866
-0.035169616 0.021898773 -0.036112983 -0.032489717 0.01585074 0.020469451 0.004530427 -0.005823779
-0.018879812 -0.0016340058 0.033261716 0.018051656 -0.026573285 -0.024370339 -0.003777249 0.022523869
-0.024551103 0.0329872 -0.011287272 -0.014258736 -0.031568084 0.029709361 0.006968461 -0.03372362
0.025367314 -0.014128414 -0.016885038 0.016882628 -0.029807106 -0.031432986 -0.025391243 0.03461687
-0.03361983 -0.006413569 -0.0067014867 -0.0043192934 -0.014321472 -0.023543244 -0.027406693 -0.027241617
-0.017088855 -0.004628832 0.028081656 0.0057374747 0.033401065 -0.025563506 0.0068461215 -0.035239104
-0.006743082 0.011066169 -0.015921658 -0.023862842 0.008576939 -0.021035649 -0.009468681 -0.033317607
-0.023754785 -0.018068757 -0.002992733 -0.01879306 0.021864088 0.008696102 -0.0026537094 0.027081897
0.027041623 -0.02651314 0.03601216 0.020313386 -0.019346323 0.026738506 -0.019842971 -0.01094056
-0.01993972 -0.031631667 0.035447463 0.009809381 -0.026172018 -0.023748524 -0.00020686637 0.01132115
0.029074144 0.016104985 0.03057364 0.0055418345 0.024382567 -0.010545369 -0.013191378 0.0058600507
0.027476981 0.00017726197 -0.020176457 0.01881307 -0.027441448 -0.008142931 0.010971037 -0.03144743
-0.009053154 -0.03429474 0.03178446 -0.0060093203 0.01085616 -0.030638458 -0.010564374 0.011306268
-0.014878901 -0.029587982 -0.02542526 0.014638851 -0.0059173494 0.012655164 -0.025032623 0.03563317
0.031913243 -0.013909124 0.018930798 0.016013762 -0.009561726 -0.031152189 -0.02942834 -0.034053266
0.033120576 0.01885567 0.034778245 0.014005967 0.02491191 0.023944633 -0.008696672 0.025829153
-0.019031769 -0.01309907 -0.008139445 0.010549382 -0.026626674 0.03060115 -6.631609e-05 -0.035691462
0.01732376 0.013413705 0.015562662 -0.01745424 -0.03450477 0.008863227 0.032877788 0.033461593
-0.023235317 -0.018385047 0.004620226 0.007105764 0.027175214 -0.022493051 0.006681059 0.018126747
-0.0012684729 0.035979506 0.015365613 -0.01827231 0.009894317 0.021968404 -0.027017094 0.01017351
0.02457247 -0.003178739 -0.0025609543 -0.01781742 -0.0039340155 -0.016278746 -0.006828444 0.026417864
0.0017856351 0.033188134 0.027517216 0.0061672237 -0.010231517 -0.029548736 -0.021281252 0.017699819
0.030387048 -0.029251475 -0.035747774 -0.034953754 -0.034974895 0.008786091 0.027703648 0.031084843

base_model.model.transformer.h.0.attn.c_attn.lora_B.weight f4 [2304, 4]
00000000: 7f07 1439 50f6 16b9 7b69 19b9 fbc2 1eb9
00000010: 36e4 04b9 4f6c 0c39 9ef9 f538 517e 8838
00000020: 9cc9 14b9 b2ab 1739 7acb c738 a38d 2139
00000030: 3790 4c37 7e92 bbb8 debc 18b9 5720 c838
00000040: c11d 76b8 bcd0 d9b8 46ad 0539 580f 16b9
00000050: ed79 b2b8 9a97 1839 8365 0739 09d4 0d39
00000060: 0830 3238 615a 3b37 5533 0d38 7db7 3a38
00000070: 31cd d738 5585 0937 3a32 4ab8 1a0a 06b8
00000080: 6292 0039 587e 0eb9 549e 11b9 771c 11b9
00000090: 5286 12b9 f961 1a39 fc8f 1e39 139e 1f39
000000a0: b109 c0b8 0553 c538 16d0 0cb9 f66a 0a39
000000b0: 898e e837 b335 14b9 860b 15b9 e688 0fb9
000000c0: ead3 6ab8 3fda d6b8 873e acb8 e7e7 c8b8
000000d0: 8ba3 fdb8 134e 1e39 b585 0d39 d824 1c39
000000e0: 34c3 f438 3e96 1eb9 099c 05b9 f7a6 1fb9
000000f0: f20c 5338 36cd 13b9 8c45 be38 7729 10b9
00000100: 2d56 1eb9 367a 1539 809d f538 2d06 1c39
00000110: f0a1 0439 e9b6 0537 a03d 9d38 03dd f6b8
00000120: c594 f5b8 d4dc c2b8 1b1c ae38 d9ec a3b8
00000130: 8eec 01b9 bb52 d7b8 50da 4e35 f6a2 9eb8
00000140: c322 c637 a4ef 18b9 2df3 50b8 0fd5 20b9
00000150: 24c3 1a39 f80b 1cb9 2319 13b9 5d0d 1eb9
00000160: 6f4a 03b8 accb 20b7 c0bc feb8 308f 8fb8
00000170: 4c82 be38 94ef 07b9 5e18 d937 317b f0b8
00000180: 716e e8b8 b8b8 1339 41ed 1a39 4f33 0e39
00000190: 589a 6638 2917 ce38 a2f7 0239 3c39 0939
000001a0: ee27 15b5 49e7 0db9 ee17 e438 5e4a 16b9
000001b0: c609 ec38 5a58 20b9 7668 c5b8 f7f2 22b9
000001c0: b773 8538 bdf3 1db9 b246 fab8 0e56 19b9
000001d0: 3b4b 14b9 8470 c438 ef39 0d38 eacc ef38
000001e0: f61b 1438 0968 1839 8af2 2a38 9d6b 1f39
000001f0: 6fe5 5fb7 7fb6 07b9 57e3 97b8 e8f8 1ab9
00000200: c627 5538 b419 04b9 7744 17b9 8297 16b9
00000210: bf24 12b9 a72f 0639 006b 0539 5d36 c938
00000220: 8b3e bf37 bc5c edb8 e389 03b9 5226 c2b8
00000230: b41c 46b8 297d 0839 9343 de38 c4f9 1839
00000240: 09d0 d738 895e 0fb9 9e1f b837 1cd7 19b9
00000250: 099e bd38 6ce1 0fb9 4323 b038 61db 12b9
00000260: fcf2 f738 3ff1 2fb8 3303 1cb9 633f 0939
00000270: 671a f637 0ada 19b9 3014 dab8 c93f 1ab9
00000280: 0b25 ccb8 60de a9b8 19ec 1db9 cba7 b238
00000290: f555 c8b8 6ee3 1539 2ad3 e338 eb56 2139
000002a0: 2d66 70b8 aaa1 cab8 0953 b538 d7e2 14b9
000002b0: fc87 0f39 3028 06b9 395e 10b9 d67a 0fb9
000002c0: 74e2 b138 c92e cc38 0914 d4b8 bbe0 aa38
000002d0: 26e9 02b9 4d1e 1d39 a675 eab8 a668 1339
000002e0: 7854 2038 dc4b 65b8 c3f4 6bb8 4c8a f8b7
000002f0: 064d 9237 5eae 2ab8 286c c8b8 f3e1 3938
00000300: ae6f 1939 da60 16b9 671c 19b9 6e2a 10b9
00000310: 559c ebb8 61de a238 b294 1b39 ea2d bab8
00000320: 9fb1 e3b8 86c6 1d39 294c 1b39 1ca8 1839
00000330: 3fff 1037 a43f 14b9 63b6 e5b8 c0b9 19b9
00000340: c8dc 8d38 8940 fe38 96bf 2b37 f105 0039
00000350: 6fee f2b8 ab70 1839 df86 1d39 8880 1439
00000360: 3454 16b9 94ca 3838 527c 3b38 0fbb bf37
00000370: cc0c 06b9 c3c1 9eb8 2d4d 9837 b627 ebb8
00000380: 961b 05b9 1c5d 1339 8d09 5b38 f280 2039
00000390: 6100 e138 d0b5 1439 f683 c738 03c7 1039
000003a0: 0820 72b8 aed9 0739 fbe5 9c36 fe28 0b39
000003b0: 3bf7 e437 e414 a6b8 85e4 0f39 4d13 b1b8
000003c0: 3c83 1639 644b c1b8 7a1c 0cb9 b8ff 15b9
000003d0: 3905 dbb8 8417 fc38 d18d 1b39 9234 bab8
000003e0: 168a 00b9 bcd4 1a39 9aea 5237 f2a8 1e39
000003f0: 59ce d2b8 5095 1539 b941 0339 ea15 1c39
0.00014117172 -0.00014396873 -0.00014630512 -0.0001514069 -0.00012673516 0.00013391789 0.00011729005 6.5085136e-05
-0.00014189485 0.00014464444 9.52696e-05 0.0001540692 1.2192925e-05 -8.944141e-05 -0.00014566208 9.542767e-05
-5.867868e-05 -0.00010386246 0.00012748418 -0.00014310831 -8.510412e-05 0.00014552326 0.0001291242 0.00013525797
4.248324e-05 1.1167112e-05 3.3664826e-05 4.4516742e-05 0.00010290219 8.19688e-06 -4.820733e-05 -3.1957497e-05
0.00012261563 -0.00013589242 -0.0001388726 -0.00013838882 -0.00013973683 0.00014723082 0.00015121693 0.00015222309
-9.1570786e-05 9.4091556e-05 -0.00013428958 0.00013200552 2.7722928e-05 -0.00014134384 -0.0001421404 -0.00013688541
-5.5987308e-05 -0.00010244967 -8.213246e-05 -9.579938e-05 -0.00012094442 0.00015097139 0.00013496618 0.00014891045
0.00011671186 -0.00015124024 -0.00012741996 -0.00015225621 5.0318376e-05 -0.0001409546 9.07286e-05 -0.00013748357
-0.00015100157 0.00014255274 0.00011711847 0.0001487962 0.00012648827 7.970005e-06 7.497822e-05 -0.00011771361
-0.00011710221 -9.291773e-05 8.3022016e-05 -7.816562e-05 -0.00012390522 -0.00010267409 7.7058667e-07 -7.564381e-05
2.3619627e-05 -0.00014585123 -4.981754e-05 -0.0001533816 0.0001475928 -0.00014881778 -0.00014028377 -0.00015073032
-3.1302156e-05 -9.584164e-06 -0.00012146821 -6.845442e-05 9.084176e-05 -0.00012963853 2.5879763e-05 -0.00011467038
-0.000110831934 0.00014087826 0.00014774968 0.00013561289 5.4980017e-05 9.8271594e-05 0.00012490017 0.0001308666
-5.556493e-07 -0.00013532968 0.000108763445 -0.00014332819 0.000112551774 -0.00015291703 -9.4131494e-05 -0.00015540035
6.363488e-05 -0.00015063486 -0.00011934097 -0.00014623275 -0.00014142405 9.366966e-05 3.3670975e-05 0.00011434576
3.531199e-05 0.00014534606 4.075704e-05 0.0001520351 -1.3345255e-05 -0.00012942588 -7.2425864e-05 -0.0001477931
5.08202e-05 -0.00012598076 -0.00014425987 -0.00014361556 -0.00013937334 0.00012796988 0.00012723729 9.594553e-05
2.2798098e-05 -0.00011318314 -0.000125445 -9.2577786e-05 -4.723361e-05 0.00013016596 0.000105983716 0.00014588895
0.000102907485 -0.0001367276 2.1949232e-05 -0.00014671352 9.0416586e-05 -0.00013721519 8.398902e-05 -0.0001400537
0.00011823137 -4.194793e-05 -0.00014878511 0.00013088952 2.933778e-05 -0.00014672443 -0.0001039881 -0.00014710346
-9.734378e-05 -8.0999685e-05 -0.0001506064 8.518955e-05 -9.552754e-05 0.00014294471 0.00010863536 0.00015386536
-5.7315618e-05 -9.662223e-05 8.646219e-05 -0.00014198884 0.00013688201 -0.00012794207 -0.00013768011 -0.00013683303
8.482198e-05 9.7361924e-05 -0.000101126796 8.148091e-05 -0.0001248462 0.00014983975 -0.00011179903 0.00014057997
3.822564e-05 -5.4668504e-05 -5.625632e-05 -2.9628303e-05 1.7440423e-05 -4.069355e-05 -9.556889e-05 4.431787e-05
0.00014632821 -0.00014341195 -0.00014601798 -0.00013748716 -0.00011234792 7.766183e-05 0.00014837345 -8.877723e-05
-0.00010857288 0.00015046643 0.00014810324 0.00014558475 8.642498e-06 -0.00014138088 -0.00010953543 -0.00014660414
6.764528e-05 0.000121236844 1.0237001e-05 0.00012209245 -0.00011583871 0.00014537822 0.0001502293 0.00014162262
-0.00014336483 4.4057684e-05 4.4700057e-05 2.285608e-05 -0.00012784003 -7.570118e-05 1.815575e-05 -0.0001121307
-0.00012694145 0.00014053698 5.2222564e-05 0.00015306825 0.00010728907 0.0001418211 9.513639e-05 0.00013807048
-5.7727128e-05 0.00012955695 4.6759355e-06 0.00013271344 2.7294844e-05 -7.919388e-05 0.00013722673 -8.443613e-05
0.00014354003 -9.217e-05 -0.00013362049 -0.0001430501 -0.000104437066 0.000120206765 0.00014834783 -8.878963e-05
-0.00012258472 0.00014765834 1.2571598e-05 0.00015130991 -0.000100520156 0.0001426537 0.00012517617 0.00014885483

base_model.model.transformer.h.1.attn.c_attn.lora_A.weight f4 [4, 768]
00000000: bf5b 2ebc 6625 963c 1dbb 04bc 3d4e e33c
00000010: eec6 0c3d b472 063d 6520 d33b fe45 01bd
00000020: b161 94bc 4019 91bb 2d8f b5bb 789a 3ebc
00000030: 7299 a9bc 219c 38bc caba 20bb 3642 a1bb
00000040: 4c11 5db9 0071 03bb 3fd2 14bc 7237 13bd
00000050: 091d f13c 4ded 0a3c 160b d33c 3902 babb
00000060: 7bae 4d3c 2d1d c03c 76b3 0c3d 1652 463c
00000070: 5104 9bba 63c8 173c a011 dbbc 20a0 cabc
00000080: ee43 d33c c526 d43b 6ec3 f7bc ba8a 13bc
00000090: 577a 3f3c 9b6d 0a3d 0ebe 8ebc caf3 8f3c
000000a0: 591d 123d 5bf4 13bd a360 1e3b 5249 2b3c
000000b0: 88bd 0dbc b3d2 f93c 49bd 733b 6e17 8b3b
000000c0: fa6d 863c 8b05 b63c 0816 9ebc 082f 733b
000000d0: 9b1c f43c 3319 013d b8af bebc 1eff e5bb
000000e0: 43e5 d6bc 3d63 9bbb d9f2 dabb 3ae5 e53b
000000f0: 1ec1 41bc f1a1 c03c d8b9 cabb 9932 ccbc
00000100: 94f7 0d3d 9dd8 b43c 666d fb3b a12a 373c
00000110: fcc2 8cbc 9576 663c 8b9b 033d a219 97bc
00000120: 77e0 da3b f053 05bc 7413 2a3c a31f 6a3c
00000130: 67a6 813c 8233 723c 4a3b 0ebd 1143 af3c
00000140: ba18 7b3c d494 223c 3693 033d 7f64 bd3b
00000150: 3350 ea3c 0bf5 c73c ef0d d53a 33e6 333c
00000160: 2449 f3bc 6732 e8bc 9126 093d 8e7a 6a3c
00000170: 4c62 e0bc b1bc 03bd b9d7 ccbc 286c b6bc
00000180: 51fd 923c 3bb1 d939 264d 2ebc 32ac 57bc
00000190: 76ad c43a 7417 3e3c 118b d13c 21c4 d2bb
000001a0: 5462 503c e7bb 00bd ac02 c63c e483 08bd
000001b0: 0adb b63c 35df dcbb 34e0 fb3c bc0a 123d
000001c0: b951 823c 96c7 823c 418e 5fbc 7b5f fa3b
000001d0: 02ce bd3c 494d 143b 920b 043d 166d b33b
000001e0: 7c59 5bbc ddf5 193c 69df 0d3d 7c16 153c
000001f0: 13f5 203c fab9 683c a9c5 303c 8261 7fbc
00000200: 3c7c 2e3c b0a5 08bd dcc2 b3bc 8972 1f3c
00000210: 94cd ee3c 0344 64bc abd2 bf3c e5c3 d03c
00000220: fd20 b93c 1fcc ff3c 237e 2ebb ca2e 04bd
00000230: a967 04bd 9a7e b4bc 0aec b9bb 1175 cebc
00000240: 8c71 71bc 6265 06bd 63a3 31ba 9791 0abd
00000250: 62b2 073c ebd6 4b3c 81f4 003d 3a5a 6e3c
00000260: dca8 f03c b359 043d f579 88b9 e6de d4bc
00000270: e53b db3c e4ed 073d c7f4 dcbc 3b67 f3bb
00000280: f81a 753c ba37 bb3a 49e9 b73c b583 0a3c
00000290: b01b 56bc c1be e5bc 7071 06bb 7013 173c
000002a0: 36b5 fcbc 8418 003d 324e 8dbc 3d96 b03c
000002b0: 0717 cdbc 6b24 e23c 2b1f b13c 08c2 b53c
000002c0: 20ef db3c 48f3 84bc b4b6 08bc 077f a9bc
000002d0: 941a 273c c805 bb3b 1562 f5bb f20c 92bc
000002e0: 81b3 82bc f140 02bd aa84 0b3d 4da3 8c3b
000002f0: c186 863c 1f9f 9e3c e3df 3cbb 6afe 463c
00000300: 3fdc 2f3c 177a 24ba ef2a 0dbd 6909 15bb
00000310: 9925 fbbb 3aad 6b3c 58b9 86bc 07ee 11bd
00000320: 0e7d 433c 8ade 65bb 4798 80bb 9eae d53c
00000330: f4ae fe3c e970 6bbb f23b 973a f64e 603c
00000340: 56dc c6bb fd8b bc3c 9cbd 7f3c e319 8f3c
00000350: 27f1 89bc 3586 a1bb ef18 c7bc 2f22 103d
00000360: 3c28 bdbc 0850 debc b57f 6fbc ad9c 8abc
00000370: d89d c3bb 8a0a abbc 2675 673c cce6 a6bb
00000380: 0339 97bc 27d6 abbc 11b1 f43b 5c9d 493c
00000390: a03c e43c 5f1e d8bc 952e d6bc 2966 883b
000003a0: ed5b 36bc 4899 c8bb d585 e33c ff3e 5a3c
000003b0: acd9 1fbb 9aa2 a43c 61d7 a63c abfe c0bc
000003c0: 5c0e 823c 2788 d43a fe94 f0bc 6678 13bc
000003d0: 4a46 d1bc defa 02bd 7005 1bbc 4d2a c53a
000003e0: bc08 db3b 5325 e5bc fbdb bc3b 7c57 2bbc
000003f0: 1b0a 8fbc 4915 f73b a87f bd3c 9c0a 06bd
-0.010641991 0.01832838 -0.008101252 0.027747268 0.0343694 0.032824233 0.0064430707 -0.03156089
-0.01811299 -0.004428059 -0.0055407495 -0.011633508 -0.020703051 -0.011267693 -0.0024525397 -0.004921223
-0.00021082646 -0.0020056367 -0.00908333 -0.03594155 0.02943279 0.0084794285 0.025762122 -0.0056765345
0.012553806 0.023451412 0.034350835 0.012104532 -0.0011826848 0.0092640845 -0.026741803 -0.024734557
0.025789227 0.0064743483 -0.030244555 -0.009005243 0.011686883 0.033795934 -0.01742461 0.017572302
0.03567252 -0.036121707 0.0024166487 0.010454493 -0.008651145 0.030495977 0.003719168 0.0042447364
0.016409863 0.02221944 -0.019297615 0.003710689 0.029798796 0.031518172 -0.023277149 -0.0070189377
-0.026232367 -0.0047420547 -0.0066817817 0.0070158513 -0.011825828 0.02351472 -0.006186705 -0.02492647
0.034659937 0.022075946 0.0076729534 0.011179597 -0.01718282 0.014066358 0.03213076 -0.01844484
0.0066795903 -0.008137688 0.010380615 0.014289769 0.015826417 0.014782788 -0.03472451 0.021394284
0.0153257195 0.009923179 0.032122813 0.0057798023 0.028602695 0.024408838 0.0016254763 0.010980177
-0.029697962 -0.028344346 0.033484045 0.014311446 -0.027390622 -0.032162372 -0.025005208 -0.02226837
0.017943056 0.00041521512 -0.010638511 -0.013163613 0.0015005309 0.011602271 0.025579007 -0.006432072
0.012718756 -0.031429198 0.024171196 -0.033328906 0.022321243 -0.0067404755 0.030746557 0.03565477
0.015908109 0.01596431 -0.013644756 0.0076407767 0.023169521 0.0022629073 0.032237597 0.0054756505
-0.013388034 0.009396997 0.03463689 0.009099599 0.009824055 0.0142044965 0.010789313 -0.0155872125
0.010649737 -0.033361137 -0.021943502 0.009731897 0.029150762 -0.013932231 0.023415884 0.025484035
0.022598738 0.031225262 -0.0026625476 -0.032271184 -0.03232542 -0.022033025 -0.00567389 -0.025202306
-0.014736544 -0.03281153 -0.00067763607 -0.03383025 0.008282276 0.012441377 0.031483177 0.014547879
0.029377393 0.032312106 -0.00026030806 -0.025985193 0.026761958 0.033185855 -0.026972188 -0.0074280775
0.014960043 0.0014283576 0.022450106 0.008454253 -0.013068125 -0.02804506 -0.0020514391 0.009220943
-0.030848127 0.03127338 -0.0172492 0.021556014 -0.025035394 0.027605256 0.021621307 0.022187248
0.026847422 -0.016229287 -0.008344341 -0.020690454 0.010199208 0.0057074763 -0.007488499 -0.017828438
-0.015954735 -0.031800214 0.034062065 0.004291928 0.016421678 0.019362984 -0.002881997 0.012145618
0.010733663 -0.00062742963 -0.034464773 -0.0022741205 -0.007664394 0.014384562 -0.0164458 -0.03562739
0.011931671 -0.003507527 -0.003924403 0.02608424 0.031089284 -0.0035925454 0.0011538251 0.013690701
-0.0060687466 0.02301597 0.015609171 0.017468398 -0.016838623 -0.004929329 -0.024303881 0.03518885
-0.023090474 -0.027137771 -0.01461785 -0.016920412 -0.005969744 -0.020879049 0.014127051 -0.005093431
-0.018459802 -0.02097614 0.007467397 0.012305584 0.02786094 -0.02638167 -0.026145259 0.004162569
-0.011130315 -0.006121788 0.027773777 0.0133206835 -0.0024391217 0.020097066 0.020366373 -0.023558935
0.015875988 0.0016214893 -0.02936792 -0.009000873 -0.025546212 -0.031977527 -0.009461746 0.0015042514
0.006684391 -0.0279719 0.0057635284 -0.01045787 -0.017460873 0.007540379 0.02313216 -0.03272496

base_model.model.transformer.h.1.attn.c_attn.lora_B.weight f4 [2304, 4]
00000000: dfad 15b9 55f4 f538 e2b0 14b9 9ab4 04b9
00000010: d960 98b8 b9ab 13b6 e302 dfb8 ddb8 adb8
00000020: 1644 06b9 2bc3 1db9 f572 49b8 ec7c e437
00000030: 4e5a 6838 552a a338 91d5 d237 4033 fdb8
00000040: 412d e738 9a74 f3b8 b2fb d638 8ff9 e638
00000050: 1d87 1839 a7c3 c8b8 f3cd 0839 c90b ed38
00000060: b580 04b8 e2a6 0339 5141 0ab8 e787 d038
00000070: 7560 0eb6 354f f7b8 421b 87b8 dfaf 8838
00000080: 0848 4638 3321 92b8 7b6b 7338 5294 d1b8
00000090: f29d dab8 a116 1db8 53b6 7db8 1e17 f938
000000a0: 1fd2 bf38 6e23 cab8 6b1f d838 ffaa cc38
000000b0: fad0 08b9 a8d2 c0b7 8e69 91b8 bf97 09b9
000000c0: 5a8d 1239 b509 af38 b3b4 0139 15b4 2b38
000000d0: 8245 f0b7 d27d 33b8 799b f2b8 6dbc df38
000000e0: 6e72 1639 4201 96b8 50b7 1b39 2562 1839
000000f0: 2023 d138 a8b0 9637 7b47 9638 d572 ccb8
00000100: 2930 18b9 3340 f938 660c 13b9 ff29 92b8
00000110: 4058 bdb8 0827 16b9 af3d 8a37 c262 e7b8
00000120: b54d 0fb9 692d fb37 6163 e6b8 2e78 09b9
00000130: 1cfa 87b8 d224 4a38 34d9 38b6 7cfd b0b8
00000140: 1f6c d3b8 8d26 5ab7 5465 e8b8 2405 1e37
00000150: c048 a838 9259 9f38 0fc3 9f38 f9a6 0639
00000160: 06bb 0eb9 7d06 1439 efae 07b9 1c00 02b9
00000170: 401c ecb8 a871 d538 7728 19b8 529d bcb7
00000180: 1ae3 1039 1610 b3b8 4620 e138 6ac5 f536
00000190: feaf 0bb9 fc85 92b6 0239 b5b8 0a94 0fb9
000001a0: 7ee0 0639 8257 e8b5 e445 0139 fd92 9738
000001b0: 6938 0838 70fb 9d38 040d fe36 6ea0 2338
000001c0: c9de 0cb9 e3a1 19b9 4d5d 6cb8 e58c 07b9
000001d0: 930a 02b9 d585 02b9 44bb a3b8 187e 99b8
000001e0: f5fb 08b9 3fe6 fab8 5363 1cb8 2c56 d737
000001f0: 7310 cf38 72e7 1139 fca4 a538 5d70 5937
00000200: 352e 1439 071f c637 5468 f138 637c 33b8
00000210: d450 0fb9 104e 0db9 26a2 1338 b3d2 a9b8
00000220: 44ae fdb8 ccf9 96b8 0ae1 90b8 ccbf 06b9
00000230: 8c67 ebb8 38c9 05b9 64b8 17b8 7871 8eb6
00000240: ed3e 8cb8 83d8 e0b8 9eb1 f438 e9f3 b038
00000250: 879b 0139 398f 13b9 6c9a 0939 7026 0f39
00000260: a9b7 1139 77cb 94b8 834e 0239 a7b1 0b39
00000270: dc39 ba38 293e b138 5ae4 4138 c241 a2b8
00000280: 84b0 ed38 3c8b 0bb9 0344 3638 cc8c 0639
00000290: 3807 c638 da75 e238 fcb4 02b7 91f3 cc38
000002a0: 11a8 e938 1c18 a938 c43e 8038 9698 8937
000002b0: b572 5636 1604 1539 dffd fab8 2c18 ca38
000002c0: 6080 97b8 48cb e6b7 7b24 fb37 278a f7b8
000002d0: cdf0 a838 72bc 0738 b947 21b7 4c80 3738
000002e0: 760e 1139 7b13 0639 abae ca38 6579 beb7
000002f0: 4ac7 9737 8ed7 e4b8 92f7 9e38 7251 a038
00000300: 00ae 13b9 30d6 ca38 e5f6 0eb9 f5de 06b9
00000310: 624e 0cb9 1fb1 c837 41c0 9ab8 34dd 0f38
00000320: b9e5 0b39 bde5 b0b8 a1c3 b038 1495 0039
00000330: a6eb 2fb8 cd54 8237 3159 0fb9 bd02 2f37
00000340: 7d7b 14b9 a160 92b8 5cbf 05b9 cb50 cbb8
00000350: 4dff c938 48ae df38 221c 8db8 d5f9 1939
00000360: a5d3 9037 5785 0239 ac8b 45b7 7520 c138
00000370: 0fca 7bb8 4ddf 0ab9 0e46 06b8 f918 64b8
00000380: 5e13 0b39 20e6 beb8 8bb7 df37 03c3 0739
00000390: 414a ba37 b409 e137 476e a837 2783 f8b8
000003a0: cd4e f9b8 b54c 05b9 869b 1ab8 e8b1 d4b8
000003b0: 6e16 d3b8 1ffa e938 2323 a2b8 c53b d1b8
000003c0: f695 12b9 2426 9637 3d6c a837 faaa 88b8
000003d0: 1f6e 1339 447e d6b8 3577 1539 93b8 0f39
000003e0: fa5f 8638 0548 0e38 c970 fb37 b241 ccb8
000003f0: a125 6338 9bbb b738 9177 95b8 bea1 dc38
-0.0001427452 0.00011728021 -0.00014180274 -0.0001265578 -7.265964e-05 -2.2004663e-06 -0.00010634006 -8.283716e-05
-0.000128046 -0.00015045393 -4.8029196e-05 2.723789e-05 5.5397213e-05 7.7803306e-05 2.51334e-05 -0.00012073526
0.000110233676 -0.00011608862 0.00010251197 0.000110137385 0.00014546183 -9.573186e-05 0.00013046693 0.00011303236
-3.159112e-05 0.00012555302 -3.2962595e-05 9.943527e-05 -2.1215794e-06 -0.00011792631 -6.442379e-05 6.517744e-05
4.7273963e-05 -6.968006e-05 5.8035814e-05 -9.9935234e-05 -0.0001042447 -3.745279e-05 -6.0489703e-05 0.00011877551
9.146728e-05 -9.63871e-05 0.00010305535 9.7593285e-05 -0.0001304782 -2.2986278e-05 -6.9338e-05 -0.00013121868
0.00013976303 8.346458e-05 0.00012369714 4.093729e-05 -2.8642597e-05 -4.2794105e-05 -0.00011568418 0.00010668566
0.00014347743 -7.152792e-05 0.00014850241 0.00014532411 9.972439e-05 1.7963655e-05 7.165872e-05 -9.748867e-05
-0.0001451379 0.00011885203 -0.00014023631 -6.969645e-05 -9.02866e-05 -0.00014319655 1.6479606e-05 -0.000110333334
-0.00013666491 2.9942677e-05 -0.000109857654 -0.00013110109 -6.483888e-05 4.8194845e-05 -2.7544565e-06 -8.439549e-05
-0.00010081403 -1.3002788e-05 -0.00011081496 9.418731e-06 8.024415e-05 7.5983946e-05 7.618043e-05 0.00012841438
-0.00013611847 0.00014116797 -0.00012939771 -0.00012397807 -0.00011258619 0.000101778016 -3.651573e-05 -2.2484604e-05
0.00013817512 -8.5383814e-05 0.000107348475 7.324551e-06 -0.00013321635 -4.366737e-06 -8.641371e-05 -0.00013692692
0.00012862866 -1.7310815e-06 0.00012328435 7.22762e-05 3.2477463e-05 7.533177e-05 7.571305e-06 3.901164e-05
-0.00013434434 -0.00014651525 -5.6353678e-05 -0.0001292709 -0.00012401705 -0.00012447622 -7.8073266e-05 -7.319095e-05
-0.00013063832 -0.000119638156 -3.72858e-05 2.5670124e-05 9.873593e-05 0.00013914498 7.898544e-05 1.29603695e-05
0.00014131593 2.3617888e-05 0.00011511208 -4.279277e-05 -0.00013667654 -0.00013475888 3.5198544e-05 -8.097794e-05
-0.000120964396 -7.199086e-05 -6.908372e-05 -0.00012850686 -0.0001122496 -0.00012758828 -3.6172933e-05 -4.2451393e-06
-6.687441e-05 -0.00010721481 0.000116679104 8.437766e-05 0.00012360337 -0.00014072367 0.00013122865 0.00013651862
0.00013896696 -7.095088e-05 0.00012427014 0.00013322254 8.879948e-05 8.451596e-05 4.6227455e-05 -7.73701e-05
0.00011333919 -0.00013307942 4.3455522e-05 0.00012831687 9.44272e-05 0.00010798471 -7.7907425e-06 9.772846e-05
0.000111416106 8.063039e-05 6.1152066e-05 1.6402726e-05 3.1955253e-06 0.0001421127 -0.00011968216 9.636613e-05
-7.224153e-05 -2.7512797e-05 2.993852e-05 -0.00011803611 8.055717e-05 3.236201e-05 -9.613047e-06 4.3750086e-05
0.00013833665 0.00012786493 9.664645e-05 -2.2706294e-05 1.8093404e-05 -0.000109120374 7.580141e-05 7.644565e-05
-0.00014083833 9.672006e-05 -0.0001363415 -0.00012862294 -0.0001338064 2.3924336e-05 -7.379102e-05 3.429987e-05
0.00013341651 -8.435126e-05 8.428773e-05 0.00012262567 -4.1942716e-05 1.5536696e-05 -0.00013670769 1.043145e-05
-0.00014160383 -6.979821e-05 -0.00012755155 -9.694843e-05 9.63198e-05 0.00010665931 -6.728644e-05 0.00014684287
1.7264692e-05 0.00012447439 -1.1774635e-05 9.209003e-05 -6.0031245e-05 -0.00013243892 -3.2013333e-05 -5.4382694e-05
0.00013263288 -9.10277e-05 2.666914e-05 0.00012947251 2.2207505e-05 2.6826609e-05 2.0078513e-05 -0.000118499906
-0.00011887923 -0.00012712444 -3.6861304e-05 -0.000101420854 -0.00010065442 0.000111568945 -7.731307e-05 -9.9770295e-05
-0.0001397951 1.7899154e-05 2.0077563e-05 -6.516832e-05 0.00014060036 -0.00010227834 0.00014254155 0.00013706302
6.407495e-05 3.392251e-05 2.9974051e-05 -9.739715e-05 5.4156062e-05 8.761064e-05 -7.1271446e-05 0.00010520544

base_model.model.transformer.h.2.attn.c_attn.lora_A.weight f4 [4, 768]
00000000: 37cf d8bb 425c 4bbc 58e5 e33c 0459 1c3b
00000010: 5e8c ddbc 788b b33b 0ce9 163c 61ed 183c
00000020: 0a5c 483c 9b27 653c bf62 d43c c820 0f3d
00000030: 0c63 cdbc 76ca 0dbd c695 bc3a dfe0 4b3b
00000040: b2bd c1bc 3d08 e7bc 0286 6ebc d1e1 9cbb
00000050: 790f 33bc 9587 2cbc be4e b2bc 4aac 3c3c
00000060: 73a4 013d fee5 05bd 36db a7bc 4790 973c
00000070: 2f91 903c 9a97 a5bc d21c faba aff7 bbba
00000080: 7c1e 50bc 0be3 d13c e837 d33b 5a8b c4bc
00000090: 78e2 02bd 10e4 b5bc c386 6bbc 2df3 8b3c
000000a0: ac52 e1bc d172 fabc 41c6 b63c 8eb6 973c
000000b0: c81b dbbc d233 e2bc d012 813b 8c21 e1bc
000000c0: ff62 ea3b be44 87bc 8cd8 9d3b a5ad 75bb
000000d0: d0df 9abc 92f3 ffbc 0a8e f1bb 22d6 683c
000000e0: 955c 0dbd 51b9 643c b3b4 063d 431c f93c
000000f0: 2489 283c 1864 1b3c 6104 343c 065f 51bb
00000100: c798 1f3c 086e 033d 0de6 923a d888 e63a
00000110: 10ca ee3c d214 10bd e182 033d 02ec ba3c
00000120: 1770 a0bc 1120 d23b 72b7 75bc 63f3 c03c
00000130: 1f9b d23c 9698 65bb b6d8 633c f663 22bc
00000140: fb2b 9fbc 5b57 b1bc 41b9 aabc 2b74 f63a
00000150: 8d44 77bb 371e 26bc 0770 c93c c8a9 783c
00000160: e6cf 89bc 66d9 e2bc f759 d5bc 258e 39bc
00000170: f5f8 c63c 634c e63c 94fc 003c 8572 10bd
00000180: 9517 13bd 016d c73c 8c83 80bc e50a 053c
00000190: e2d9 553c 203c a3bb 49c2 d4bc 994b 543c
000001a0: 6af6 c43c 4dc6 043d 7e01 4abc 4138 6a3c
000001b0: cf3b 053c d699 88bc 6f36 b8bc f040 0c3d
000001c0: 2dfc f73c 2741 f83c 636a 453b 26be eb39
000001d0: 9442 0fbd d8c2 8abc a331 cfbc e396 7c3c
000001e0: 3426 e7ba 894f ffbc cf64 74bc 408a 07bd
000001f0: 1280 59bc f115 123d 9fab 003c a92a bc3c
00000200: b1ec babc bac7 12bd 24f8 83ba ecea 09bd
00000210: 53c2 84bc e6f8 1d3b 99d1 78bc 5db1 dc3c
00000220: 8153 2b3c a945 64bb 2925 b63c c84f edbc
00000230: e421 af3c b4e8 97bc 39cc fcbc 89ff 2f3c
00000240: 5e09 d4bc b336 283b 8ab8 9f3c 4a4d 483a
00000250: ed6b d43c 705a c9bc 6f1e 823c 2f35 243a
00000260: b7db 57bb 520f 8fbc aa5f 9fbb 402c 013d
00000270: 970a 833c c040 fe3c b78b 01bd e7e0 a73c
00000280: 0342 dcbc e963 cc3b 7b3f aabc e1d0 ea3c
00000290: f4df fcbc 75bd 6a3c 1eb2 b83b 612d 1bbc
000002a0: 5b41 263a a60e 63bc ea55 c8bc e59d 193c
000002b0: 5774 1fbc aa58 e13c 84de 8abc 3130 a43c
000002c0: 7a27 ab3c daeb e03c 6048 8ebc 0c7f fbbc
000002d0: 9ba9 56ba 4bb4 e0bc ccf8 c7bc a1f8 cb3b
000002e0: 01bc 88bc 1612 c93b 486a 57bb f8e9 073d
000002f0: 3259 a4bc 9e27 f63c a43a 05bd d1d2 8d3c
00000300: 36cb d9bc acde 13bd d85a e4bc 1e58 543c
00000310: 6b5c fc3c 6689 aabc c8d9 98bc 30c2 04bd
00000320: 222d f4bc d010 54bc 017f 093c 050e b73c
00000330: c8a6 fa3c b087 6ebc 92a3 b93b ddf3 0bbd
00000340: 6e87 11b9 f210 a33c 0800 3bbc 3924 c7bc
00000350: ad7d 043d 486d 403c 075d cebc 65e7 9e3b
00000360: 3232 8dbc 8852 02bd bacd f73c 700e f6bc
00000370: d113 ea3b 8d60 04bb 1c8a 213c 880f ccbc
00000380: 52ef c1bc e7e9 5d3c 7367 97bb 869c 553c
00000390: 1346 9c3c b097 093d 9fb4 6b3c 5e12 06bd
000003a0: fb16 6d3b 33cf a2bc 808d 8c3b d64b a4bc
000003b0: c8d5 81bc eff4 d33c 4486 80bb b5e2 cdbc
000003c0: 1e90 863c 91ec b73c 17d3 b93b 4bf8 dd3c
000003d0: 7758 13bd bacb 113b d423 13bd bfac 42bc
000003e0: f666 adba 3dba a53c bd33 e73c d519 093d
000003f0: 3fd8 a73c d60f 8bbb 1fe3 66ba 497e 7cbc
-0.006616499 -0.012412133 0.02781932 0.0023856768 -0.027044471 0.0054792725 0.009210836 0.009333939
0.012228975 0.013986493 0.025925992 0.034943372 -0.025071643 -0.03461691 0.0014387898 0.0031109375
-0.023650024 -0.02820217 -0.014558317 -0.0047876616 -0.010928982 -0.010530372 -0.021766063 0.011515686
0.03165097 -0.03269004 -0.02049027 0.018501414 0.017647354 -0.02021389 -0.0019082075 -0.0014340783
-0.012702581 0.025620958 0.0064458735 -0.02399223 -0.03195426 -0.022203475 -0.014375391 0.017083729
-0.027505241 -0.030572327 0.022311332 0.018519666 -0.026746646 -0.0276126 0.00393901 -0.027481817
0.0071529145 -0.016512271 0.004817074 -0.0037487533 -0.01890555 -0.031244073 -0.0073716687 0.0142112095
-0.03451212 0.0139601985 0.032887172 0.030408984 0.010286603 0.009484313 0.010987372 -0.0031947508
0.009741015 0.032087356 0.0011207476 0.001758839 0.029149085 -0.035176106 0.032107238 0.022817615
-0.019584699 0.006412514 -0.01499735 0.023553556 0.025708733 -0.0035033575 0.013906648 -0.009911528
-0.019430151 -0.0216481 -0.02084029 0.0018802931 -0.0037730068 -0.01013904 0.024589552 0.015177198
-0.016822767 -0.027691554 -0.026043875 -0.011325394 0.024288634 0.028112596 0.007872719 -0.035265464
-0.03591116 0.02434397 -0.015687726 0.008120273 0.013052436 -0.0049815327 -0.025971549 0.012957477
0.02404328 0.032415677 -0.012329457 0.014295639 0.008131935 -0.016674917 -0.022486893 0.034241617
0.030271614 0.030304505 0.0030123226 0.00044964364 -0.034975603 -0.016938612 -0.025292223 0.015416834
-0.0017635287 -0.031165855 -0.014916613 -0.03309083 -0.013275163 0.035665456 0.007853418 0.02296956
-0.022817941 -0.035835005 -0.0010068459 -0.033671305 -0.016205942 0.0024104654 -0.015186691 0.026940042
0.010456921 -0.003483156 0.022234516 -0.028968707 0.021378465 -0.018543579 -0.0308591 0.010742077
-0.025883373 0.002566737 0.019497175 0.00076409115 0.02593037 -0.024579257 0.015883652 0.00062640285
-0.0032937357 -0.01746336 -0.004863699 0.03153634 0.01599626 0.031036735 -0.031627383 0.020492984
-0.026886946 0.006237496 -0.020782223 0.028664054 -0.030868508 0.014327397 0.0056364676 -0.009471268
0.0006342136 -0.013858473 -0.02445503 0.009376024 -0.009732327 0.027508099 -0.016951807 0.02004251
0.020892847 0.027456213 -0.017368495 -0.03070023 -0.00081887253 -0.02742972 -0.024410628 0.0062247072
-0.01669121 0.006136189 -0.0032869745 0.033182114 -0.020062063 0.030048188 -0.032526627 0.01731244
-0.026586156 -0.03610103 -0.027875349 0.012960462 0.030805787 -0.02081747 -0.018658534 -0.032411754
-0.029806677 -0.012943462 0.0083920965 0.022345552 0.030597106 -0.014558718 0.005665251 -0.034168113
-0.00013878729 0.019905541 -0.011413582 -0.024309264 0.032346416 0.011744805 -0.025190843 0.0048493617
-0.017235849 -0.03181699 0.030249465 -0.030036181 0.0071434756 -0.002019915 0.009859588 -0.02490975
-0.023673687 0.013544536 -0.0046204864 0.013037806 0.019076383 0.033591926 0.014386325 -0.03273236
0.0036177028 -0.01987419 0.004289329 -0.020055693 -0.01584901 0.02587363 -0.0039222557 -0.025132516
0.016426142 0.02245167 0.005670916 0.027095934 -0.03597304 0.0022246675 -0.03592284 -0.011882006
-0.0013229537 0.020230407 0.028222913 0.0334719 0.020488856 -0.004243831 -0.00088076474 -0.015410968

base_model.model.transformer.h.2.attn.c_attn.lora_B.weight f4 [2304, 4]
00000000: 89a7 a438 28ee c7b8 3159 d238 602d 18b9
00000010: d708 f3b8 b441 1e39 29cf b7b8 1e49 1439
00000020: 1bd1 7fb8 60c1 0bb9 925c d136 70e9 eeb8
00000030: 68d7 b438 080b 16b9 67a6 e2b8 6d1d 1bb9
00000040: 9a37 09b9 5317 cdb8 450c aab8 ffd8 0e39
00000050: 1fed b9b8 b3b1 c5b8 b3c9 d4b8 fcd4 54b8
00000060: c498 f336 8252 cc38 97fe 0cb9 1643 b638
00000070: fc6d b1b8 14f5 1239 663f 54b8 e920 9038
00000080: 6acc 7538 8f50 1739 eb26 1fb8 3049 0839
00000090: 6a19 c8b8 e97b 02b7 3188 14b9 9aee cfb7
000000a0: 9bee e6b8 ccb6 1f39 111b 14b8 c783 1339
000000b0: dd00 8cb5 8686 adb8 9949 6236 1cac 2bb8
000000c0: 162f 26b8 281c 1239 0b52 ffb6 6dbd 0e39
000000d0: 8f3a 4fb7 8ab9 10b9 9891 c3b7 7266 07b9
000000e0: 30d6 4338 e5c7 0db9 89c0 b4b8 f64e 15b9
000000f0: 0066 7db7 9364 ac38 e06d 11b7 053a aa38
00000100: f212 ea38 a07e b438 0a96 eb38 f6e3 04b9
00000110: 90ac 0838 a054 bfb5 1441 c838 3b5b 12b9
00000120: 1e93 2a38 12a4 11b9 1260 10b9 0657 8bb8
00000130: 5997 6e38 c5a9 15b9 ace0 9db8 e674 c4b8
00000140: 8989 a2b7 4f9b 13b9 03de fab8 28da d5b8
00000150: f68b 6db7 c3d5 0638 a4ba b0b8 a0a4 a338
00000160: 047e 6fb8 0cbb 8a36 df99 11b8 b1ce 08b9
00000170: 9160 ee38 90fc bfb8 ba59 b238 fdaf 9bb8
00000180: 9731 c938 276e 8d38 96f4 d637 9e3b 1e38
00000190: 91e0 b1b8 2667 1cb9 4b31 d4b8 7c2a fab8
000001a0: f825 7fb8 16d6 d0b8 f863 09b9 a86f fdb8
000001b0: d06d f938 8a8c 04b9 527a 06b7 ee1c f9b8
000001c0: 7899 a8b8 6355 38b8 e260 0bb9 45f7 d3b8
000001d0: ca8f d838 d8ec 1236 49b3 8738 9171 1439
000001e0: 04cb 77b8 2836 4438 7a9c 96b8 9c4b 0438
000001f0: 38f1 f7b8 7adf 82b8 b02f 06b9 af2c cd37
00000200: b1e8 7bb7 90dd c938 d682 0339 8cdf aeb8
00000210: 9161 96b8 3b46 acb8 cffd 0eb9 e1f4 d636
00000220: 9f7e 1537 7a98 1839 7d20 f7b7 a8cb a238
00000230: 82af 91b8 a544 0c39 9d13 d038 9593 79b8
00000240: 2973 f1b6 c06b 8837 4e1d beb8 f020 b638
00000250: 8f75 a1b8 2737 c4b8 3060 cab8 8fb7 dfb8
00000260: bc79 e835 3a8a 0a39 e46a ea38 f63d b838
00000270: eacc c338 97dc e6b8 edc1 b538 3e4c fbb8
00000280: 4cad 6d38 0399 b9b8 8593 f537 a6a7 f5b8
00000290: da9d 27b8 bea4 a7b8 7ccc a6b8 d60c 1b39
000002a0: b08c 48b7 0bbc a136 76b7 66b8 cd00 5fb8
000002b0: 9fb9 adb6 78b5 02b9 251e 3a37 46b5 0eb9
000002c0: ed6d 8138 4e0b 9337 0b2e 0d39 7a09 11b9
000002d0: ee59 8238 b4e6 ccb8 a541 4638 cd5e fab8
000002e0: 8a38 d538 5147 15b9 80bf c038 1fbf 12b9
000002f0: b007 0fb8 6222 c8b8 95df f6b8 94bd ae37
00000300: cf14 6838 cc43 0838 a393 37b7 0592 cf37
00000310: f593 3db8 6ed5 1039 c5ab 0239 534e 0539
00000320: fc1a c838 6f87 0cb9 0799 18b9 475f 6d37
00000330: 6f97 9f37 a0a9 df38 ed20 53b7 6ff7 af38
00000340: f4d0 8438 1cb9 3cb8 c9c4 f637 070c 02b6
00000350: d2e2 7538 27b9 1639 9fc4 1339 0f65 6836
00000360: cfb3 3cb8 e6bf 3538 e16f 82b8 dec6 d2b8
00000370: 2f9b 09b9 eb40 ad38 18c7 e3b8 dbbd 1039
00000380: ce49 9e38 8751 0fb9 c660 12b9 a1fe fcb8
00000390: b791 6cb8 0563 12b9 cf96 c2b8 4044 e7b8
000003a0: 27ca 0c39 0e97 5638 5899 0e39 1f2c 01b9
000003b0: d1a9 72b7 df70 0b39 7444 1839 6d9e 0339
000003c0: 394f abb7 b272 6937 6467 db38 3206 04b7
000003d0: 64c3 a838 7a5d b937 3d3e 0239 5cae 5338
000003e0: dc0f d7b8 ce49 1739 7ddb fe38 aa60 8b37
000003f0: 10e1 3538 8dd0 cb36 e2f2 9838 55e0 8638
7.851335e-05 -9.5334195e-05 0.000100301935 -0.00014512753 -0.000115887895 0.0001509253 -8.7647066e-05 0.00014141618
-6.0991482e-05 -0.00013328111 6.239462e-06 -0.000113922055 8.6231914e-05 -0.00014309224 -0.000108075146 -0.00014792914
-0.00013086051 -9.779506e-05 -8.108517e-05 0.00013623013 -8.865655e-05 -9.426791e-05 -0.00010146517 -5.0743096e-05
7.2597486e-06 9.742846e-05 -0.00013446283 8.690932e-05 -8.460504e-05 0.00014014944 -5.0603783e-05 6.872585e-05
5.8602927e-05 0.00014430493 -3.79448e-05 0.00012997235 -9.541477e-05 -7.777454e-06 -0.00014165115 -2.478743e-05
-0.000110116984 0.00015231519 -3.5311157e-05 0.00014068103 -1.0431064e-06 -8.27434e-05 3.3719464e-06 -4.0929866e-05
-3.9621336e-05 0.00013934134 -7.6091433e-06 0.00013612742 -1.2351796e-05 -0.00013802029 -2.3313609e-05 -0.00012912767
4.66911e-05 -0.00013521274 -8.618931e-05 -0.00014239163 -1.5103724e-05 8.2203325e-05 -8.668256e-06 8.117039e-05
0.00011161518 8.6066546e-05 0.0001123362 -0.00012673423 3.2585638e-05 -1.4255238e-06 9.548865e-05 -0.00013957631
4.0668172e-05 -0.00013889399 -0.00013768699 -6.644246e-05 5.6884575e-05 -0.00014272991 -7.528192e-05 -9.367782e-05
-1.937595e-05 -0.0001407687 -0.00011962282 -0.00010197266 -1.4158888e-05 3.214717e-05 -8.4270985e-05 7.8031095e-05
-5.70994e-05 4.1344956e-06 -3.4713998e-05 -0.00013046969 0.00011366711 -9.154633e-05 8.504414e-05 -7.423756e-05
9.593664e-05 6.7439214e-05 2.5624682e-05 3.772566e-05 -8.4818465e-05 -0.00014915745 -0.00010118129 -0.00011928842
-6.08321e-05 -9.9580895e-05 -0.0001310258 -0.00012084778 0.000118936994 -0.00012640856 -8.015502e-06 -0.00011878634
-8.03945e-05 -4.394854e-05 -0.00013292165 -0.000101073216 0.000103264654 2.1893557e-06 6.470696e-05 0.00014156687
-5.9078462e-05 4.678048e-05 -7.1817034e-05 3.154167e-05 -0.00011822808 -6.240509e-05 -0.00012797001 2.4458712e-05
-1.50149435e-05 9.625696e-05 0.00012541874 -8.3386054e-05 -7.1707305e-05 -8.2146806e-05 -0.00013636726 6.4062046e-06
8.910573e-06 0.00014552652 -2.9459823e-05 7.762696e-05 -6.94683e-05 0.00013377013 9.921866e-05 -5.9503673e-05
-7.195766e-06 1.6262638e-05 -9.0653644e-05 8.6845714e-05 -7.698975e-05 -9.356281e-05 -9.650027e-05 -0.00010667659
1.7320776e-06 0.00013212199 0.000111778994 8.785345e-05 9.336493e-05 -0.00011008343 8.666874e-05 -0.00011982814
5.66666e-05 -8.849988e-05 2.927497e-05 -0.00011713737 -3.9962913e-05 -7.993866e-05 -7.953585e-05 0.00014786734
-1.1953685e-05 4.820065e-06 -5.5007135e-05 -5.316809e-05 -5.177411e-06 -0.00012465368 1.10934825e-05 -0.00013609705
6.1716746e-05 1.752903e-05 0.0001346396 -0.00013831808 6.215634e-05 -9.77045e-05 4.7268015e-05 -0.00011938587
0.00010167163 -0.00014236315 9.190943e-05 -0.00013994843 -3.4101016e-05 -9.5431475e-05 -0.000117718395 2.0830696e-05
5.533249e-05 3.2488068e-05 -1.0942024e-05 2.4744319e-05 -4.5198907e-05 0.00013812419 0.00012461755 0.00012713046
9.5417694e-05 -0.00013401893 -0.00014552857 1.4148484e-05 1.9024794e-05 0.00010665064 -1.2584246e-05 8.3907384e-05
6.333171e-05 -4.499509e-05 2.941712e-05 -1.937851e-06 5.8623795e-05 0.0001437409 0.0001409226 3.4629518e-06
-4.4990153e-05 4.3332482e-05 -6.219722e-05 -0.00010050622 -0.00013123149 8.261375e-05 -0.000108612876 0.00013803637
7.547774e-05 -0.00013667914 -0.00013959696 -0.00012063725 -5.6402492e-05 -0.00013960533 -9.278731e-05 -0.00011027651
0.00013426748 5.1162257e-05 0.000135993 -0.00012318835 -1.44638625e-05 0.00013298121 0.0001452135 0.00012552152
-2.042168e-05 1.3914587e-05 0.00010461992 -7.869256e-06 8.0472586e-05 2.2097247e-05 0.00012420952 5.0468705e-05
-0.00010254953 0.00014427977 0.00012152547 1.6615104e-05 4.336337e-05 6.07415e-06 7.293165e-05 6.431403e-05

base_model.model.transformer.h.3.attn.c_attn.lora_A.weight f4 [4, 768]
00000000: 351c 0b3d 001a 813b 6386 acbc fff5 05bd
00000010: f8b6 e83c f6e4 d8bc 85b1 133d 0c49 633c
00000020: f493 0e3d e5d8 ee3c 7629 0bbd 04c4 3b3c
00000030: 3738 0fbd 21b0 a0bc d3cb a43c 4345 643c
00000040: 2885 b03b e3e7 773c f32b f33c ff02 1a3c
00000050: 818c b8bc e9c8 db3c 5e5a 043d 3e21 6ebc
00000060: ba25 483c 3654 ed3c 7a55 55bb 040e c4bc
00000070: b1b2 3bbc 41ae 91bc 0f33 d2bc d427 72bb
00000080: adfd 97bc e9cd b4bb 07c0 8dbb a2e7 babb
00000090: b91a 6dbc a0b9 3b3c 3ebc e1bc 1339 c03c
000000a0: 1a7b f6bc d0ae c43c b19f b73b 9f70 abbc
000000b0: 01e6 a0bc dff4 463b d780 57bc b6b5 943b
000000c0: 1f32 db3c f49e a33c d412 f1bb 8490 10bc
000000d0: fbaf 10bc 0489 8fbc a758 e6bc 5ef7 e6bc
000000e0: 4d0b b53b 2725 383c 0206 8a3c b1bb 063d
000000f0: a87e cc3b 31cb fdbc 0dd7 84bc 4ad3 c3bc
00000100: c07b d4bc 4ce3 a6bc 8b1a 843c e999 96bc
00000110: d122 933c 310b 95bb e199 0fbd a637 86ba
00000120: ab38 4dbc 47b9 ad3c c37c 213c 16e4 eebc
00000130: 5f13 0abb a4fc d83c 4795 0dbc 994d b73c
00000140: 4849 73bc 0d4b 00bd 82e6 163c e298 83bc
00000150: 0c2f a23b e7de 04bc 319c 94bb 2351 acbb
00000160: 7d99 b33c 251d 133c 373d e4bc 4061 6fbc
00000170: e84b 44bc b7ca c2bc e0af f7bc c100 9f3c
00000180: c270 f43a b1dc 163b e371 0e3d 015d 8bbc
00000190: 3dde 9b3c 3d5c c9bc 7cf2 633c 5023 10bd
000001a0: 2efd 56bc dbdf bfbb 6641 473c b5a8 4e3c
000001b0: 2fcc 92b9 3075 d73b 9356 f73c 3bc0 0c3d
000001c0: 2185 19bc e8cd a6bc 75fc 41bc 84a3 89bb
000001d0: c975 e5bc 3572 e1bc 129a 723c 3ef2 e6ba
000001e0: c2ae 013c 17bd f53c 9a2c a4bc 2dbb cf3b
000001f0: acbb c4bc b62c c1bc 8fd1 8f3c d090 833c
00000200: 4f7a 503c 15a5 e7bb e922 0fbd 94c9 09bd
00000210: dbc3 e8bc 37c7 d73b 89ea 8e3c be40 b23c
00000220: 4f33 0f3d ad12 0d3d 5c91 47bc a7b4 cb3c
00000230: fbf8 e73c db94 693c ae59 da39 657a b4bc
00000240: a709 f93b bddc bebc 0bb1 c33c 72cf dcbb
00000250: b86c 65bc 9f21 bd3c a345 f5bc 15e7 afbc
00000260: f2d9 5ebc 5fc6 023d 9b09 c5bc 0cae 253b
00000270: 28ee d3bc 759f 3f3b 1178 843b ee9c 63bc
00000280: 8f61 0b3d 9316 d03c 8cf4 ccbb b8ea 4fbc
00000290: bfad 0d3d 7d0e b7ba 48ee c63c 038d 003d
000002a0: 3439 f33b 0d3b 6fbc 4039 7c3c bdd0 b0bc
000002b0: de40 77bc 6df5 cdbc 94bb 2ebc 0c28 b03c
000002c0: 9e80 23bb 7360 a93c 5152 d9bc 43d6 0abd
000002d0: ef1a 01bb 92e3 0cbc 83d6 093d 5798 17bb
000002e0: ae76 cabc 094b 0ebc b0a4 fabb 3b0f a9bc
000002f0: 3afb 913c b664 e7bc 01ea f1bc 607e 483c
00000300: d4ab d73c c68f 9c39 34f6 9cbc ff64 c1bb
00000310: 4069 f23c 8412 bfbc 849d 0e3d 609a 00bd
00000320: 56ea 703b d15f babc 6f06 61bc 1d68 f6bb
00000330: 5019 0b3c 2c39 d53a 9076 303b 9f91 c4bc
00000340: abfe 2a3b 3714 12bd f798 cf3c e0f0 123d
00000350: f5d7 0abd 17d2 e2bc 3af9 c23c bf6a cbbb
00000360: 50ac 77bc 8f98 b2bc 7370 73bc aeba 0bbd
00000370: 74bd 033d 626e 0cbd 1fc1 163b 35f8 0bbd
00000380: 2c3d c63c 7b60 82bc f678 4bbc 538d e23c
00000390: 5e1b f2bc e453 e83c 38bf 48bb ba9b c53c
000003a0: bd2a 88bc 2d8f f6bb 0939 143b 35eb 66bc
000003b0: 9cae 9fbc 7219 56bc a239 023d 1d2b a63c
000003c0: eeea bcbc c188 a43c 27a1 bb3c dd9f e8bc
000003d0: 112a b83c b87f ff3c 013f 00bb e0e1 d7bc
000003e0: 0107 d7bb 915e b13c ea03 30bc 636c e6bc
000003f0: 2b90 ae3c 9f28 b73c 8845 133d bc7e 523c
0.033962447 0.003939867 -0.021060174 -0.032705303 0.028407559 -0.026476365 0.036057968 0.013872396
0.034809068 0.029156158 -0.033975087 0.011460308 -0.03496572 -0.019615235 0.020116722 0.013932529
0.005386967 0.01513097 0.029684043 0.009400128 -0.022527935 0.0268292 0.032312743 -0.014534293
0.012216026 0.028970819 -0.0032552169 -0.023932464 -0.011456178 -0.017783286 -0.025659112 -0.003695001
-0.01855358 -0.0055177105 -0.00432587 -0.0057038823 -0.014471703 0.011457831 -0.027555581 0.023464715
-0.030087996 0.024009138 0.0056037535 -0.020927725 -0.019640924 0.0030358357 -0.013153276 0.004538263
0.026757298 0.019973256 -0.007356981 -0.008823518 -0.0088310195 -0.017521389 -0.028118445 -0.028194126
0.005525029 0.011239327 0.016848568 0.03289384 0.0062406845 -0.030980678 -0.016215825 -0.023904461
-0.025937915 -0.020372055 0.016125938 -0.018383937 0.017960938 -0.0045484533 -0.03505886 -0.0010239973
-0.012525718 0.021206511 0.009856406 -0.029161494 -0.0021068675 0.026487656 -0.0086415475 0.022375869
-0.014849015 -0.031321574 0.009210231 -0.016064111 0.004949456 -0.008109785 -0.004535221 -0.0052586957
0.021923775 0.008979117 -0.02786122 -0.014610589 -0.011980988 -0.023778303 -0.03023523 0.01940954
0.0018649327 0.0023019726 0.03477658 -0.017012121 0.01902687 -0.024580115 0.013912793 -0.035189927
-0.013121886 -0.005855543 0.012161588 0.012613465 -0.0002799942 0.006575249 0.030192649 0.034363013
-0.009370119 -0.020361856 -0.011839976 -0.004200401 -0.028010266 -0.027520278 0.014807241 -0.0017619801
0.007915201 0.029997392 -0.020040799 0.0063394518 -0.02401527 -0.02358089 0.01755598 0.016060263
0.012724473 -0.00706924 -0.034945402 -0.033639506 -0.028413704 0.0065850276 0.01744582 0.021759387
0.03496104 0.03444164 -0.0121806525 0.024866415 0.028316965 0.014256681 0.00041647017 -0.022031019
0.0076000276 -0.023298616 0.023888132 -0.0067385966 -0.014002971 0.02308732 -0.029940432 -0.021472493
-0.013601767 0.031927463 -0.024052432 0.0025280742 -0.025870398 0.002923933 0.0040426333 -0.013892395
0.034028586 0.02540139 -0.006254738 -0.012690239 0.034589525 -0.001396611 0.024283543 0.03138448
0.0074225906 -0.014601481 0.015394509 -0.02158391 -0.015091149 -0.025141442 -0.010664839 0.02150347
-0.0024948488 0.020675873 -0.02652851 -0.033895742 -0.0019699892 -0.008599179 0.03365184 -0.0023131573
-0.024714794 -0.008684882 -0.007649027 -0.020637145 0.01781999 -0.028246265 -0.029530527 0.012237161
0.026327051 0.00029861758 -0.019160368 -0.0059019323 0.029591203 -0.023324259 0.034818187 -0.031397223
0.003676077 -0.022750767 -0.013734444 -0.0075197355 0.008489922 0.0016267649 0.0026926138 -0.023995219
0.0026091735 -0.03566381 0.025341494 0.035874248 -0.03389736 -0.02768807 0.023800481 -0.0062077935
-0.015116766 -0.021801261 -0.014858353 -0.03411358 0.0321631 -0.034284957 0.0023003293 -0.034172256
0.02419909 -0.015915146 -0.012418976 0.02765528 -0.029554065 0.028360315 -0.0030631553 0.024122108
-0.016621942 -0.007524392 0.0022617003 -0.014094164 -0.01949244 -0.01306759 0.031793244 0.02028423
-0.023061242 0.02008474 0.022903992 -0.028396541 0.022480996 0.03118883 -0.0019568803 -0.026352823
-0.006562114 0.021651538 -0.010743121 -0.028127855 0.021308979 0.022358237 0.035954982 0.012847599
