fine_tuned_distilgpt2/adapter_model.safetensors (safetensors, 296440 bytes, 12 tensors)

base_model.model.transformer.h.0.attn.c_attn.lora_A.weight f4 [4, 768]
0	0xbc14a63b	-0.009072836
1	0x3d33a142	0.04385496
2	0xbcdf1492	-0.027231488
3	0x3d3ff231	0.04686183
4	0x3c6ae9d7	0.014337978
5	0x3d3584dd	0.04431616
6	0xbd2c5d74	-0.04208131
7	0x3c9ad3a5	0.018899748
8	0xbbc3b2b6	-0.0059722317
9	0x3d192080	0.03738451
10	0xbcf2a012	-0.029617343
11	0x3cd9c505	0.026583204
12	0xba53a4fe	-0.0008073597
13	0xbc8b8542	-0.017031316
14	0xbc60f88b	-0.013731132
15	0x3d2bc8c9	0.04193953
16	0x3c7c93e8	0.015416123
17	0x3d1ec68b	0.038763564
18	0xbd0ee06a	-0.034881987
19	0x3d0c3d44	0.034238115
20	0xbcb3e0be	-0.021957751
21	0x3d075cf4	0.03304763
22	0x3ce38145	0.027771601
23	0xbc6c476f	-0.014421328
24	0xbc1615d2	-0.009160476
25	0xba91310b	-0.0011077238
26	0x3c676326	0.01412276
27	0x3bcfa2ed	0.006336561
28	0x3ca12d7d	0.01967501
29	0xbc2a7ceb	-0.010405759
30	0x3ccc8537	0.024965866
31	0xbb61f728	-0.0034479592
32	0x3ce39f2f	0.027785866
33	0xbbfb3ff0	-0.007667534
34	0x3d0d7305	0.03453352
35	0xbbbb6b77	-0.005719598
36	0xbc9b9b72	-0.01899502
37	0x3bc20c73	0.005921894
38	0x3ae58f7a	0.0017514073
39	0x3c203cfe	0.009780167
40	0xbb73e6a4	-0.003721633
41	0x3b2054c4	0.0024464587
42	0x3c036816	0.0080204215
43	0xbbf443a6	-0.0074543534
44	0xbc89e62f	-0.016833393
45	0x3d126dc3	0.03574921
46	0x3bbfca14	0.005852947
47	0xbd2b0714	-0.041754797
48	0x3d33cc1d	0.04389583
49	0x3cdc1670	0.026866168
50	0x3c8c9f04	0.017165668
51	0xbd52d003	-0.051467907
52	0xbb62fdab	-0.0034636061
53	0x3d683fae	0.056701355
54	0xbd3ab3cc	-0.045581624
55	0x3c4586b1	0.012056039
56	0x3c822862	0.015888397
57	0xbabfdeac	-0.0014638505
58	0xbc25c1fb	-0.010117049
59	0x3d4af017	0.049545374
60	0xbcb98eeb	-0.022651156
61	0x3c9cc85b	0.019138506
62	0xbc8a4a97	-0.01688127
63	0xbcb21667	-0.021739198
64	0xbb61e85a	-0.0034470768
65	0x3d15fb32	0.03661651
66	0xbc5e7194	-0.013576884
67	0xbccf0f46	-0.025275838
68	0x3d274887	0.04084065
69	0x3d0918c4	0.033470884
70	0x3c958df2	0.018256161
71	0x3cb68fde	0.022285398
72	0x3ce04cda	0.027380396
73	0xbcb45493	-0.022012984
74	0xbd1eb30a	-0.038744964
75	0x3aaca709	0.0013172339
76	0x3c715431	0.014729545
77	0x3d17fa1b	0.037103754
78	0x3bd9589f	0.006632879
79	0x3cd068c3	0.02544058
80	0xbd05de1b	-0.03268252
81	0xbccc38e6	-0.024929475
82	0x3b227838	0.0024790894
83	0xbc031929	-0.008001604
84	0x3d1d1029	0.03834549
85	0xbcd5bcb4	-0.026090957
86	0x3d15888f	0.036507186
87	0xbc24c234	-0.010056067
88	0x3c4eb0d4	0.012615401
89	0xbba960d8	-0.0051690154
90	0x3cb1c088	0.021698251
91	0xbbee86da	-0.007279259
92	0x3c0acdf6	0.0084719565
93	0x3c3d963a	0.011571461
94	0xbca8a487	-0.020586265
95	0xbc0285ac	-0.00796644
96	0xbcc9075a	-0.024539638
97	0xba3735fe	-0.00069889415
98	0xbc998c06	-0.018743526
99	0xbd515de3	-0.051114928
100	0x3cbf0f0c	0.023322605
101	0x3c79852d	0.0152295055
102	0x3b9325e6	0.004490602
103	0xbc9964c7	-0.018724812
104	0xbc23d5a7	-0.009999669
105	0x3b74029b	0.0037232998
106	0xbaea28ff	-0.0017865001
107	0x3c17a09c	0.009254601
108	0x3d50455e	0.050847404
109	0xbc2c7dbf	-0.010528027
110	0xbb25a6f4	-0.0025276514
111	0x3c687b97	0.014189622
112	0x3c802659	0.015643286
113	0x3cba4661	0.022738637
114	0xbc8527c0	-0.016254306
115	0xbbe056b9	-0.0068462756
116	0xbce8fe69	-0.028441625
117	0x3d44acfc	0.048016533
118	0x3ca4f415	0.020135919
119	0x3cde6624	0.027148314
120	0xbcaec15d	-0.021332437
121	0xbd17d2d7	-0.037066307
122	0x3d2d94a3	0.04237808
123	0x3d327a88	0.043573886
124	0xbcd1fc81	-0.025633099
125	0xbc1fd50a	-0.009755382
126	0x3bfbb288	0.0076811947
127	0x3d0218d1	0.031761948
128	0x3c2da255	0.010597785
129	0xbc93f15d	-0.018059427
130	0xbcf1a19b	-0.029496005
131	0xbd12bcad	-0.035824466
132	0x3bc6d14e	0.0060674315
133	0xbd071c9c	-0.03298627
134	0x3c96d0b7	0.01841007
135	0xbd16b31b	-0.036791902
136	0x3d04f953	0.032464337
137	0xbc89035f	-0.01672524
138	0xbcb79184	-0.022408254
139	0x3ba40571	0.0050055315
140	0xbd3138cb	-0.043267053
141	0x3c2107a5	0.009828483
142	0xbbd718c9	-0.006564234
143	0xb9b5958b	-0.00034634428
144	0x3cb70d0d	0.02234509
145	0xbd5f773e	-0.054557078
146	0x3c5dd03b	0.013538416
147	0x3cfa08a3	0.030521696
148	0xbd5b21f3	-0.053499173
149	0xbcbbba40	-0.02291596
150	0xbcab6336	-0.02092133
151	0xbc15e4f3	-0.009148824
152	0xbd28376c	-0.04106848
153	0xbd070833	-0.032966804
154	0x3c26d7be	0.010183273
155	0xbc59e376	-0.01329886
156	0x3c105bcc	0.008810949
157	0xbc77c116	-0.015121719
158	0xbd0d017c	-0.034425244
159	0xbd21fb89	-0.039546523
160	0x3cb76142	0.022385243
161	0x3d46a0e6	0.04849329
162	0x3b84c974	0.0040523354
163	0xbcc4ee57	-0.02403943
164	0xbc2f93bc	-0.010716375
165	0xbb5684db	-0.0032732997
166	0xbc3b42fd	-0.0114295455
167	0x3cf5355c	0.02993267
168	0x3b88cfc5	0.0041751587
169	0x3c5e0a9e	0.013552336
170	0xbcdd9ed9	-0.027053284
171	0x3bddd6aa	0.0067699747
172	0xbd076746	-0.033057474
173	0xbd345e4d	-0.044035245
174	0x3c4e34ee	0.012585862
175	0x3c8aecd3	0.01695863
176	0x3d3cd734	0.04610367
177	0x3c9afcff	0.018919466
178	0xbb6a7bf3	-0.0035779446
179	0xbd2ebccd	-0.042660523
180	0x3d1a2d2a	0.037640728
181	0x3c1ecb65	0.009692048
182	0x3c00963d	0.00784832
183	0x3cde6782	0.027148966
184	0xbcb9076c	-0.022586547
185	0xbd5d11fc	-0.05397223
186	0x3af5dd85	0.0018758035
187	0x3d3338b3	0.043755244
188	0x3c45f424	0.012082133
189	0x3c616003	0.013755801
190	0xbd057d08	-0.032589942
191	0x3d5e3102	0.054245956
192	0x3d427f31	0.04748458
193	0xbca9cbfc	-0.02072715
194	0xbcd087c7	-0.025455369
195	0x3cce9012	0.025215182
196	0xbbff2b36	-0.0077871336
197	0xbd01cd0e	-0.031689696
198	0xbc13be76	-0.009017577
199	0xbd3c9beb	-0.046047132
200	0xbd1d2f97	-0.038375463
201	0xbc3ac83b	-0.011400278
202	0x3d1ab625	0.037771363
203	0xbcc5f89d	-0.0241664
204	0x3d0beace	0.034159474
205	0x3c43daf9	0.011954063
206	0x3cead43c	0.028665654
207	0xbcf7e467	-0.030260278
208	0x3cb743ce	0.022371199
209	0x3d62f413	0.05540855
210	0xbd2a9cce	-0.041653447
211	0xbcd2b65e	-0.025721725
212	0x3cab6e23	0.02092654
213	0xbce928f6	-0.028461915
214	0xbc61f17a	-0.013790483
215	0x3be50db2	0.006990158
216	0xbcb69d9e	-0.022291955
217	0xbc13efff	-0.0090293875
218	0x3c4eeea3	0.012630138
219	0xbada5efe	-0.001666039
220	0xbc79ac29	-0.0152388
221	0x3d1dbe0e	0.03851133
222	0x3bbf8fcd	0.005846
223	0xbc8327bd	-0.01601016
224	0x3cd07334	0.025445558
225	0x3d2a1538	0.041524142
226	0x3d103615	0.035207827
227	0x3d105f40	0.035247087
228	0xbd64b770	-0.055839002
229	0x3d16661e	0.03671848
230	0xbbb62303	-0.005558373
231	0xbd004638	-0.031316966
232	0xba9a5154	-0.0011773505
233	0x3c121090	0.008915082
234	0x3d04ef64	0.032454863
235	0xbcb4eab7	-0.022084577
236	0x3cbd655e	0.023119625
237	0xbc3e4372	-0.01161276
238	0xbaf69f99	-0.0018815874
239	0x3c0a9501	0.008458377
240	0x3d1aa3fd	0.037754048
241	0x3ca8f0c8	0.020622626
242	0x3d1779d2	0.03698141
243	0x3cea34a3	0.028589552
244	0xbcd26372	-0.025682185
245	0x3d05be35	0.0326521
246	0xbbec790a	-0.0072165774
247	0x3d1f54b5	0.038899142
248	0xbca51e97	-0.020156188
249	0x3d060199	0.032716367
250	0x3d25a705	0.040442485
251	0x3cbed8bb	0.023296705
252	0x3c91d33d	0.017800922
253	0xbb9303e5	-0.0044865482
254	0x3b435906	0.00298077
255	0xbd1bb3c0	-0.03801322

base_model.model.transformer.h.0.attn.c_attn.lora_B.weight f4 [2304, 4]
0	0xbc0dafdc	-0.008647885
1	0x3c00d5c2	0.007863464
2	0xbc90be49	-0.01766886
3	0xbc2da91a	-0.010599399
4	0xbbc9b9f3	-0.0061562
5	0x3c2c1116	0.0105021205
6	0xbc5776e8	-0.013150908
7	0xba796962	-0.00095142995
8	0x3b362241	0.0027791413
9	0xbab7093c	-0.0013964544
10	0xbb97adad	-0.004628858
11	0x3c174db6	0.009234836
12	0xbba6fadf	-0.005095824
13	0x3b44330a	0.0029937648
14	0x39e1b7b9	0.00043052228
15	0xbbb5f65e	-0.005553051
16	0x3c28aead	0.010295552
17	0xbbbe8f51	-0.0058154245
18	0x3c3dd1c8	0.01158566
19	0xbbc31a58	-0.005954068
20	0x3c01c5ae	0.007920666
21	0x3a9b545e	0.0011850705
22	0xbb84485c	-0.004036946
23	0x3c54597a	0.012960786
24	0x3b719abd	0.0036865913
25	0xbb229bc9	-0.0024812093
26	0x3bc92f55	0.0061396756
27	0xbbb16fe8	-0.0054149516
28	0x3b32a982	0.002726168
29	0xbba50f3d	-0.005037217
30	0x3bdd406b	0.006752064
31	0x390b33da	0.00013275389
32	0xbb99a27b	-0.0046885586
33	0x3b97e315	0.0046352246
34	0xbc0cebd1	-0.008601145
35	0xbbd3e761	-0.0064667915
36	0x3b8ba2ad	0.004261336
37	0x3c1430ca	0.009044835
38	0xbb7f5018	-0.0038957652
39	0x3ad37a2d	0.0016134434
40	0xbbdaa927	-0.0066729966
41	0x3c3c446b	0.0114909215
42	0xbbef038d	-0.0072941245
43	0x3a831258	0.0009999974
44	0xbbccdf37	-0.006252195
45	0x3b4ef9eb	0.0031582068
46	0xbae8e6e6	-0.0017769008
47	0xbb3e046f	-0.0028994342
48	0xbc09cb4f	-0.008410289
49	0xbc7179a2	-0.014738472
50	0x3c682c2f	0.01417069
51	0xba8e7ff8	-0.0010871878
52	0x3b010e00	0.0019692183
53	0x3b80b51f	0.0039278413
54	0x3ba77809	0.005110745
55	0x3ae9cb0e	0.0017837004
56	0xbc08ff61	-0.008361668
57	0x3b69543b	0.0035603184
58	0x38982e1a	7.256512e-05
59	0xbc8387a5	-0.016055891
60	0x3ba35afa	0.0049852105
61	0xba158f08	-0.0005705212
62	0x3b48546d	0.00305679
63	0xbc856bb0	-0.016286701
64	0x3bcb35ea	0.0062014954
65	0x3b9a7e76	0.0047147823
66	0xba534cd9	-0.00080604624
67	0x3b1572b4	0.0022803964
68	0x3a4f81fe	0.00079157937
69	0x3c335683	0.010945919
70	0xbafd705e	-0.0019335856
71	0xbc3a24b0	-0.011361286
72	0x3b86b0ca	0.0041104304
73	0xba34a19f	-0.00068905385
74	0x3bdbf0e0	0.006712064
75	0xbc000598	-0.007813834
76	0x3b6d890b	0.0036245014
77	0xbb1e2245	-0.0024129313
78	0x3bfe9831	0.0077696075
79	0xbbfcb41c	-0.0077119004
80	0x3b30b47e	0.002696305
81	0xbb9c045c	-0.004761262
82	0x3bfe7d96	0.007766436
83	0xbbfb3c8c	-0.00766713
84	0xbbc5eaf7	-0.006039973
85	0x3c22127c	0.009892102
86	0xbc7c4c9d	-0.015399125
87	0xbc6f9dab	-0.014624993
88	0xbba61c9c	-0.0050693285
89	0x3b8ee60a	0.004360919
90	0xbc255a83	-0.01009238
91	0xbb8f9011	-0.0043811877
92	0x3b7569a6	0.0037447005
93	0xbbbd8362	-0.0057834843
94	0x3bf0792e	0.0073386645
95	0xbb9256c4	-0.0044659097
96	0x3c261a23	0.010138067
97	0xbc57d1ff	-0.013172626
98	0x3c674ef9	0.01411795
99	0x3c69e2f6	0.014275303
100	0x3c3bb951	0.011457757
101	0xbaf435c9	-0.0018631752
102	0x3abfaa46	0.0014622889
103	0x3c2f9763	0.010717246
104	0xbb94c192	-0.004539677
105	0x3ade6752	0.0016968048
106	0xbb4ed26c	-0.0031558527
107	0xbc8d6e00	-0.017264366
108	0x3ad1fefa	0.0016021424
109	0xbc2520ce	-0.010078622
110	0x3b4e31e9	0.0031462854
111	0xbb40d6a1	-0.0029424804
112	0xbbc78d42	-0.0060898373
113	0x3beba2df	0.0071910466
114	0xbb88bbfc	-0.0041728
115	0xbc90c8b7	-0.017673833
116	0xbc266720	-0.010156423
117	0x3bcea973	0.006306821
118	0xbc1306b1	-0.008973763
119	0xbc0a8a88	-0.00845588
120	0xbba9d3d5	-0.005182723
121	0x3b4893ad	0.00306056
122	0xbb99822d	-0.0046847076
123	0x3c4dc779	0.012559765
124	0x3b32d8ad	0.0027289793
125	0xbb0d8a55	-0.0021597345
126	0x3bf56b1e	0.007489576
127	0xbbc19553	-0.0059076934
128	0xbc0cc494	-0.00859179
129	0x3c2a5bbf	0.010397851
130	0xbc90f02a	-0.017692644
131	0xbc0e3a19	-0.008680844
132	0x3bed64f3	0.0072447
133	0xbade042e	-0.0016938502
134	0xbb1c38a2	-0.0023837467
135	0x3c58f8de	0.013242928
136	0xbc4a7821	-0.0123577425
137	0x3b6a8d9b	0.003578997
138	0x3abf934c	0.0014616041
139	0xbc7747d7	-0.015092812
140	0x3ac9aa3e	0.0015385819
141	0xbbaf86ed	-0.0053566606
142	0x3c1687cd	0.009187651
143	0x3be968f6	0.007123108
144	0x3ae97013	0.001780989
145	0xbafa3a27	-0.0019090817
146	0x3ba548c0	0.005044073
147	0xbc3f4aa1	-0.011675508
148	0xbb1d9428	-0.0024044607
149	0xbbfae8ac	-0.007657131
150	0x3bdaae56	0.0066736145
151	0xbc341df4	-0.0109934695
152	0xbc668ec1	-0.014072121
153	0xbaad631a	-0.0013228387
154	0xbbae7a1f	-0.0053246166
155	0xbb2ecacf	-0.0026671176
156	0xbb941615	-0.004519234
157	0x3c26e702	0.0101869125
158	0xbc5270fd	-0.012844321
159	0xbc8c5a97	-0.01713304
160	0xbc78d1e2	-0.015186759
161	0x3c5dfb7c	0.013548728
162	0xbc04ceee	-0.0081059765
163	0xbc1bfbf0	-0.009520516
164	0xbc252221	-0.010078938
165	0x3bbb2bf1	0.0057120253
166	0xbb9a12d0	-0.0047019497
167	0x3b6485d1	0.00348698
168	0x3abf565f	0.0014597884
169	0x3a96d56f	0.00115077
170	0xbc341a55	-0.010992606
171	0xbc089e56	-0.0083385315
172	0xbbba158b	-0.0056788377
173	0xbae64337	-0.0017567639
174	0xbc0e1b99	-0.008673572
175	0xbb7bf05f	-0.0038442833
176	0xbc457d86	-0.012053853
177	0x3a544414	0.00080973026
178	0xbc353951	-0.011061029
179	0x3bb49e0b	0.0055120043
180	0xb9ce72fa	-0.00039377046
181	0xb8079e5c	-3.2333992e-05
182	0x3ba942f7	0.0051654535
183	0x3c57856e	0.013154371
184	0x3b28461c	0.0025676554
185	0xbb588ff4	-0.0033044787
186	0x3c051676	0.008123031
187	0xbb1cc06a	-0.0023918399
188	0x3bc90d89	0.0061356467
189	0x3c07030a	0.008240471
190	0x3a498df5	0.0007688695
191	0xbc3798fb	-0.011205907
192	0xbc357fd4	-0.01107784
193	0xbaff2877	-0.0019467016
194	0x3b54b93c	0.003245904
195	0xbc25fb5e	-0.010130731
196	0x3bc5621f	0.00602366
197	0x3bf05b5a	0.0073351087
198	0x3ac8fc06	0.0015333898
199	0x3b2f9354	0.0026790695
200	0x3c6b2341	0.014351667
201	0xbc1cf1ff	-0.009579181
202	0x3bd7328b	0.0065673045
203	0x3c962438	0.018327817
204	0xbc14716d	-0.009060246
205	0xbc2be0a3	-0.010490569
206	0x3c4b672c	0.012414735
207	0xbc191333	-0.009342956
208	0x3bca3f6a	0.0061721103
209	0xbc11536b	-0.008869986
210	0x3c8e9c84	0.017408617
211	0x3c0e828e	0.008698119
212	0x3c382ae7	0.0112406975
213	0x396f5c3a	0.00022827173
214	0x3ae8f9d9	0.0017774656
215	0x3c12e2fc	0.00896525
216	0x3c4c7e31	0.012481258
217	0x3bb1c38b	0.005424922
218	0x3b082aa5	0.0020777371
219	0x3b65c31d	0.0035058924
220	0x3aff590a	0.0019481492
221	0xbbf8d4fe	-0.00759375
222	0x3b01af80	0.0019788444
223	0xbc054970	-0.008135185
224	0xbc71dae4	-0.01476166
225	0x3b62cc18	0.0034606513
226	0xbc4fe7b4	-0.01268952
227	0xbb03959b	-0.0020078185
228	0x3ba48631	0.0050208797
229	0x39c68a8b	0.00037868725
230	0x3b7ec58d	0.0038875074
231	0x3c00ad4e	0.007853819
232	0xbbcc5cf2	-0.006236666
233	0xba9a7f1a	-0.0011787147
234	0xbb0bf218	-0.0021354016
235	0x3b85aab3	0.004079187
236	0x3bda2f93	0.0066585033
237	0xbb34ce79	-0.0027588888
238	0x3c28d883	0.010305527
239	0xbbbfdc8d	-0.005855149
240	0xbb428cd2	-0.0029685986
241	0x3b1908d3	0.0023351207
242	0xbc1d66a4	-0.009606991
243	0x3b4c95f2	0.0031217304
244	0x3c5da13e	0.013527213
245	0xbc89d75f	-0.01682633
246	0x3c27263a	0.010201985
247	0x3c5ee1b7	0.013603619
248	0xba2918f6	-0.0006450558
249	0x3a8fe666	0.0010978698
250	0xbbaef3e0	-0.0053391308
251	0x3c648a57	0.013948998
252	0x3bf16e02	0.0073678503
253	0xbb4d24ec	-0.0031302525
254	0x3afefd07	0.001945407
255	0x3c348a22	0.011019262

base_model.model.transformer.h.1.attn.c_attn.lora_A.weight f4 [4, 768]
0	0xbd30ab32	-0.043132015
1	0x3c3cd4cc	0.011525344
2	0x3c372752	0.011178808
3	0xbc894a30	-0.016759008
4	0x3d27c4de	0.04095923
5	0x3d17f790	0.03710133
6	0x3bac6aef	0.005261771
7	0x3bb473e4	0.0055069793
8	0x3d2ee0d1	0.04269487
9	0xbc5a1ffd	-0.013313291
10	0xbc43119f	-0.011906057
11	0xbc869fef	-0.016433684
12	0x3cc77478	0.024347529
13	0x3bb40c11	0.0054946025
14	0xbc8d4260	-0.017243564
15	0xbd15e61c	-0.036596403
16	0xbb571b00	-0.003282249
17	0x3c7f1e5e	0.015571205
18	0x3c2720de	0.010200707
19	0x3c29a50f	0.010354294
20	0x3cdfc598	0.0273159
21	0xbd473134	-0.048630908
22	0x3c8a6774	0.016895033
23	0xbcd52b84	-0.026021726
24	0x3c8096dc	0.015696935
25	0xbd1bd97f	-0.038049217
26	0x3c87ec41	0.016592147
27	0x3d27e001	0.04098511
28	0x3ceb2bec	0.028707467
29	0x3c8f7fdb	0.01751702
30	0xb8ac003e	-8.201644e-05
31	0x3cca7e19	0.024718331
32	0xbcf1451e	-0.029451903
33	0x3ca15042	0.01969159
34	0x3d377382	0.04478789
35	0x3c894fda	0.016761709
36	0x3c127ab8	0.008940391
37	0x3be38a2a	0.0069439607
38	0xbb0c4bef	-0.0021407565
39	0x3c91577a	0.017741907
40	0xbbd87fe3	-0.006607042
41	0x3d312c22	0.04325498
42	0x3c81b61e	0.01583391
43	0x3bbac070	0.00569921
44	0x3ca9c173	0.020722127
45	0x3d1dc5bb	0.03851865
46	0x3ce55c06	0.027997982
47	0x3be07c6c	0.0068507697
48	0x3a0535ed	0.0005081583
49	0x3d4edd79	0.05050418
50	0xbce2933e	-0.027658101
51	0x3acfeda4	0.0015863669
52	0xbd54bb16	-0.05193623
53	0xbc34da07	-0.01103831
54	0xbd4a8a2a	-0.04944817
55	0x3cf62bc7	0.030050172
56	0x3d151621	0.036398057
57	0x3c77d1f5	0.015125741
58	0x3c1a8bdf	0.009432762
59	0x3caeeae1	0.021352233
60	0x3cd002bb	0.025391927
61	0xba523ca7	-0.0008019902
62	0x3d2cdc6f	0.04220241
63	0xbd1e3d3c	-0.038632616
64	0x3d5c6011	0.053802554
65	0xbd53f62c	-0.05174844
66	0xbcaedaef	-0.02134463
67	0xbd04cb27	-0.032420304
68	0x3d2da20a	0.04239086
69	0x3d43dc7c	0.047817692
70	0x3cb0376e	0.021510806
71	0x3cdee630	0.027209371
72	0xbcfe41fc	-0.031037323
73	0x3cf02a7a	0.02931713
74	0x3bf35324	0.0074256826
75	0xbcaf19d8	-0.021374628
76	0x3c19df0b	0.0093915565
77	0xbc1ec680	-0.009690881
78	0xbc6ba918	-0.014383577
79	0x3cbbfdaa	0.022948105
80	0x3ca50b72	0.02014706
81	0x39d915ba	0.00041405653
82	0xbc89fea2	-0.016845051
83	0x3d338e5b	0.043836933
84	0x3cad1239	0.021126853
85	0xbcfe0267	-0.031007005
86	0x3d169433	0.036762428
87	0x3c3f902f	0.011692091
88	0xbcbe7aac	-0.023251854
89	0xbb3f632b	-0.0029203396
90	0xbca2ddf0	-0.019881219
91	0x3c3dd346	0.011586016
92	0xbd06f7cd	-0.032951165
93	0x3caab98f	0.020840434
94	0xbd1dd83a	-0.038536288
95	0x3c49bd49	0.0123131955
96	0x3c5c6cee	0.013453705
97	0xbb086e0c	-0.0020817546
98	0xbc219933	-0.009863186
99	0xbd230887	-0.039803054
100	0xbc98931d	-0.018624837
101	0x3c20ab5b	0.009806479
102	0xbca38b99	-0.019964026
103	0x3ca4caaf	0.020116178
104	0x3c4085f7	0.01175069
105	0x3c31ce31	0.0108523825
106	0xbc4a984e	-0.012365414
107	0x3d00e6ec	0.031470224
108	0xbc226cb6	-0.009913614
109	0x3bba4b72	0.0056852633
110	0xbd4eb4c0	-0.050465345
111	0xbd357105	-0.044297237
112	0x3c841ea1	0.016127886
113	0x3c27c8ed	0.0102407755
114	0x3d0b22f7	0.033968892
115	0xbc74ca5a	-0.0149408225
116	0xbd298199	-0.04138336
117	0xbb099e47	-0.0020998882
118	0x3d520432	0.051273532
119	0x3c939cb3	0.018019056
120	0x3b245122	0.0025072773
121	0x3ac81580	0.0015265197
122	0x3d197cf5	0.037472684
123	0xbc6f5f77	-0.014610163
124	0x3c42afb3	0.01188271
125	0xbd2f0629	-0.042730484
126	0xbc783321	-0.015148909
127	0xbc736c13	-0.01485731
128	0x3d05ec73	0.0326962
129	0xbd5a2c53	-0.053264927
130	0x3d32aa5a	0.04361949
131	0xbb60644f	-0.0034239476
132	0x3d0169d0	0.03159505
133	0xbc36ba39	-0.011152797
134	0xb9a9038e	-0.0003223684
135	0x3d2cb100	0.042160988
136	0x3bca6293	0.0061763017
137	0xbd56c7f5	-0.052436788
138	0xbab96c47	-0.0014146649
139	0x3ccc6d59	0.024954485
140	0xbc52a880	-0.012857556
141	0xbca90200	-0.020630836
142	0xbaa1537a	-0.0012308203
143	0xbd0f931b	-0.0350524
144	0xbc65abc6	-0.014018005
145	0x3cc2b2cd	0.0237669
146	0x3ce8789d	0.028377825
147	0x3bdaea7b	0.0066807843
148	0x3bdd3a59	0.0067513403
149	0xbcb7d9e0	-0.022442758
150	0xbcf8e06c	-0.03038045
151	0x3cc67316	0.0242248
152	0x3d107bf0	0.035274446
153	0xbc93955c	-0.018015556
154	0xbca057ad	-0.019573057
155	0xbc627e92	-0.013824122
156	0x3b159371	0.0022823478
157	0x3bd2b773	0.0064305603
158	0x3c1c7d2c	0.009551328
159	0x3d18fa19	0.037347887
160	0xbd20501a	-0.03913889
161	0xbd1369fd	-0.03598975
162	0x3b287e65	0.0025710103
163	0xbbb654dd	-0.0055643157
164	0x3cc52bc7	0.024068726
165	0xbca9cdaa	-0.020727951
166	0xbc83f3ee	-0.016107526
167	0xbc7d97b9	-0.015478068
168	0xbcbff24b	-0.023430964
169	0xbc1dac92	-0.0096236635
170	0xbc6c402b	-0.014419596
171	0xbd0a5c65	-0.03377952
172	0x3d246510	0.040135443
173	0x3c401cee	0.011725647
174	0xbcebfb0b	-0.02880623
175	0xbc8ea68b	-0.017413398
176	0xbd1deb00	-0.03855419
177	0xbc92c5b3	-0.017916536
178	0xbd266f83	-0.04063369
179	0xbd573182	-0.05253745
180	0xbc4755fd	-0.012166497
181	0xbce9ca9e	-0.028538998
182	0x3cdfa74e	0.027301457
183	0x3d322133	0.043488692
184	0x3d193882	0.037407406
185	0xbc124435	-0.008927395
186	0x3cf63b85	0.030057678
187	0xbd3b4008	-0.04571536
188	0xbd4214d8	-0.04738316
189	0xbd22a8e0	-0.039711833
190	0x3af80c1a	0.0018924505
191	0xbb83f23f	-0.0040266807
192	0x3c4ebc05	0.01261807
193	0xbbb31f46	-0.0054663746
194	0xbc9e775c	-0.019344024
195	0x3ce9201e	0.028457697
196	0xbca0592d	-0.019573772
197	0xbc8398e7	-0.01606412
198	0xb9a9114c	-0.0003224708
199	0x3ccbb80f	0.02486804
200	0xbd46b4e8	-0.04851237
201	0x3cb201b0	0.02172932
202	0x3bfa0f34	0.007631207
203	0x3d44d229	0.048051987
204	0x3c8191a9	0.015816526
205	0xbd10f1f4	-0.035386994
206	0xbd2f2e01	-0.042768482
207	0xbd48582b	-0.04891221
208	0xbc524f48	-0.012836285
209	0xbc1f18c6	-0.009710496
210	0x3d27c385	0.040957946
211	0x3d2f3037	0.04277059
212	0xbbe0e811	-0.006863602
213	0xbaa8c963	-0.0012877401
214	0xbcafed9d	-0.021475608
215	0xbc549e91	-0.012977258
216	0x3d3f0d74	0.04664369
217	0xbd262bb1	-0.04056901
218	0x3d0c169c	0.03420125
219	0x3d0457ac	0.032310173
220	0x3d3b0c2e	0.045665912
221	0xbc5a6260	-0.0133291185
222	0xbd30b676	-0.04314276
223	0x3d4c3958	0.049859375
224	0x3ca50623	0.020144528
225	0x3c225bab	0.009909551
226	0xbcc0ece3	-0.023550456
227	0xbd3820f7	-0.044953313
228	0xbc7625be	-0.015023647
229	0xbce27e14	-0.02764801
230	0x3d3f70a3	0.046738278
231	0x3cbbcc9c	0.022924714
232	0xbd174254	-0.03692849
233	0x3c98b4f1	0.018640967
234	0xbbb4fa2d	-0.0055229873
235	0x3c1b871e	0.009492664
236	0xbca942ee	-0.020661797
237	0x3cc4b0b2	0.024010036
238	0x3c71f73a	0.014768416
239	0x3d2d9b6d	0.042384554
240	0x3ac9b5c6	0.0015389256
241	0x3cc5f64c	0.024165295
242	0x3d3fdddb	0.046842437
243	0xbccc7fef	-0.024963347
244	0x3d01ab91	0.03165776
245	0x3b8c6f50	0.0042857304
246	0x3d4ba607	0.049718883
247	0x3c5d44e3	0.013505193
248	0x3c567a74	0.013090719
249	0x3b8fa84b	0.0043840758
250	0xbd0bac97	-0.03410014
251	0x3ce84385	0.028352508
252	0x3bf4a2f0	0.0074657127
253	0x3c9fa1b6	0.01948629
254	0x3c682281	0.014168383
255	0x3ca4759c	0.020075612

base_model.model.transformer.h.1.attn.c_attn.lora_B.weight f4 [2304, 4]
0	0x3c8bc78e	0.017062929
1	0x3ba38dc8	0.004991267
2	0x3c699e19	0.014258885
3	0x3b924dcd	0.004464841
4	0x3c50805f	0.012725919
5	0x3aeb28fb	0.001794129
6	0x3c18d531	0.009328173
7	0x3c119b4c	0.008887123
8	0x3be7f752	0.0070790434
9	0x3bb7dd9b	0.005611134
10	0xbab1117b	-0.0013509238
11	0xbaf2b955	-0.0018518368
12	0x3b738850	0.0037160106
13	0x3baee9a5	0.005337911
14	0x3b38812b	0.0028153162
15	0x3b998f66	0.004686284
16	0xbc5f486a	-0.013628105
17	0x3a1e3471	0.0006035036
18	0xbc7977b9	-0.015226298
19	0xbc4b85c7	-0.012422032
20	0xbc82b1a0	-0.015953839
21	0x3baf87a1	0.0053567444
22	0xbbe30b08	-0.0069288053
23	0x3af926da	0.0019008771
24	0x3b7f9089	0.0038996062
25	0xbb809006	-0.003923419
26	0x3c5a9ff3	0.013343799
27	0x3c778026	0.015106237
28	0x3b2a2caa	0.0025966563
29	0x3a283c4a	0.0006417675
30	0xbaee8140	-0.0018196478
31	0xbaedcb37	-0.0018142228
32	0xbadc7708	-0.0016820142
33	0x3b58776e	0.003303017
34	0xbba8a8a7	-0.005147058
35	0xbc0a71c0	-0.008449972
36	0x3b2e30f9	0.0026579483
37	0xbbedc8f8	-0.0072566234
38	0x3ae9b8c8	0.0017831558
39	0xbb3f285c	-0.0029168343
40	0x3b7951ba	0.0038043098
41	0xbbc6c2e0	-0.0060657114
42	0x3c3d5345	0.011555498
43	0x3c5c4b01	0.013445617
44	0x3b897551	0.0041948934
45	0x3bc1e2f6	0.0059169484
46	0xbc12c1c7	-0.008957333
47	0xbc0ae416	-0.0084772315
48	0xbc60ec70	-0.013728246
49	0x3b9158a8	0.0044356175
50	0xbbf1ad8d	-0.007375425
51	0x380b9196	3.327577e-05
52	0xb9e23665	-0.00043146606
53	0x3c29038e	0.010315789
54	0xbba08de8	-0.004899729
55	0xbb7402a3	-0.0037233017
56	0xbba86ceb	-0.005139937
57	0x3bf57bd5	0.0074915686
58	0x3ba05494	0.004892895
59	0x3be4bbcc	0.006980395
60	0xbbb3d9e3	-0.0054886206
61	0x39002b26	0.00012223105
62	0xbbe487a3	-0.006974177
63	0xbbba4228	-0.005684156
64	0x3c70f497	0.014706752
65	0xbb9da402	-0.004810811
66	0x3bbc37da	0.0057439627
67	0xbb227d3f	-0.002479389
68	0x3b9b2783	0.004734935
69	0xbb94fcef	-0.0045467536
70	0x3b83f22f	0.0040266733
71	0x3b8a9cb8	0.004230108
72	0x3b72b60c	0.0037034778
73	0xbbca97e4	-0.0061826576
74	0xbb16ecc4	-0.0023029307
75	0xbc3b70b3	-0.011440444
76	0x3c114f56	0.008869013
77	0x3c128fbc	0.008945402
78	0x3bfedb53	0.0077776103
79	0x3c2403d0	0.010010675
80	0xbb136041	-0.0022487792
81	0x3b172b8c	0.0023066727
82	0xbb8cdad1	-0.004298546
83	0xbbd9a040	-0.0066414177
84	0x3c07a7d0	0.008279756
85	0x3bf85130	0.0075780377
86	0x3c4ebcc8	0.012618251
87	0x3c68bf26	0.01420573
88	0x3a5db18f	0.0008456939
89	0x3a3aa7bb	0.00071203307
90	0xba580924	-0.0008241108
91	0xbb99e952	-0.0046970034
92	0x3bb644e7	0.005562413
93	0xbc2e918e	-0.01065482
94	0x3c120a44	0.00891358
95	0x3b03ebbd	0.0020129525
96	0xbc5ae012	-0.013359087
97	0x3be463ff	0.0069699283
98	0xbc906605	-0.017626772
99	0xbc660b1a	-0.014040733
100	0x3c1b887d	0.009492991
101	0x3c01a8dc	0.007913794
102	0xbb10a4bf	-0.0022070853
103	0xbb846c33	-0.0040412187
104	0xbc4d1ec4	-0.012519542
105	0xbaeca088	-0.0018053213
106	0xb9f2239f	-0.00046184377
107	0x3b0c2a7f	0.0021387634
108	0x3ae88694	0.0017740303
109	0x3c2cb198	0.0105403885
110	0x3b055f9c	0.0020351177
111	0x3bee5218	0.00727297
112	0x3b872e32	0.00412538
113	0xbc12431c	-0.008927133
114	0x3b112836	0.0022149212
115	0xbc3d2d29	-0.011546412
116	0x3c2ab4e3	0.010419103
117	0x3c0f660f	0.00875236
118	0xbb64350e	-0.0034821662
119	0xbc105657	-0.0088096475
120	0x3c57fec6	0.013183301
121	0x3b2026e0	0.0024437234
122	0x3c6b6867	0.014368153
123	0x3c53ad24	0.012919698
124	0x3b803a33	0.003913188
125	0x3bcca32d	0.006245038
126	0x3c1f974b	0.009740661
127	0x3bfc0752	0.0076913023
128	0xbc57c1ee	-0.013168795
129	0x3bc6be02	0.006065131
130	0xbc95f3c8	-0.01830472
131	0xbc10983a	-0.008825356
132	0xbaa57e48	-0.0012626136
133	0xbb17fe30	-0.002319228
134	0xbac38b60	-0.0014918856
135	0xbc5a5c2e	-0.013327641
136	0xbc5b839f	-0.01339808
137	0x3b2aaeaa	0.002604405
138	0xbc81b733	-0.015834427
139	0xbc66b830	-0.014082
140	0x3c40217e	0.011726735
141	0x3bb74c52	0.005593815
142	0x3c6c35b3	0.0144171
143	0x3c88c4c7	0.016695393
144	0xbc1df6af	-0.0096413335
145	0xbbe92435	-0.007114912
146	0x3b2727c8	0.002550589
147	0x3bad3041	0.0052852933
148	0xbaac3987	-0.0013139703
149	0xbab5f4e6	-0.001388219
150	0x3b6ae06d	0.0035839335
151	0x3bad2c03	0.0052847876
152	0xbbb0a210	-0.005390413
153	0xbb5e852d	-0.003395389
154	0xba83fa82	-0.0010069164
155	0x3bac6f44	0.0052622873
156	0xbb891dcc	-0.0041844603
157	0x3b776555	0.0037749608
158	0xbb8ebfe9	-0.0043563736
159	0xbafe4ace	-0.0019400956
160	0x3acab052	0.0015463925
161	0x3a77d46c	0.00094539556
162	0x3ba1b02b	0.004934331
163	0x3bfd50a4	0.0077305604
164	0x39af3b51	0.00033422795
165	0xbb606ce6	-0.0034244596
166	0x3b45ba26	0.0030170768
167	0x3c294bf8	0.010333054
168	0x3b805a14	0.003916988
169	0xbb8da899	-0.004323077
170	0x3c4c96d5	0.012487133
171	0x3c46fc1e	0.01214507
172	0xbb43112d	-0.0029764876
173	0xbb97f8e7	-0.004637826
174	0xbad012fe	-0.0015874801
175	0xbb807731	-0.0039204587
176	0x3ab991d5	0.0014157841
177	0x3bbfe27d	0.005855857
178	0xbba432db	-0.0050109453
179	0xbb559d32	-0.0032594916
180	0xbc2b82f3	-0.010468232
181	0xbc0de1e7	-0.008659816
182	0xbb6c5554	-0.0036061602
183	0xbae8645e	-0.0017730107
184	0xbc353a4c	-0.011061262
185	0x3a9e190a	0.0012061906
186	0xbc242acc	-0.010019969
187	0xbbd615a3	-0.006533341
188	0x3b28b034	0.002573979
189	0xbc20f823	-0.009824785
190	0x3bfaf80b	0.0076589636
191	0x3bade236	0.0053065075
192	0x3bdebf17	0.006797682
193	0xbc48bfdf	-0.012252777
194	0xb8a16b11	-7.697021e-05
195	0xbc350168	-0.011047699
196	0x3c670b05	0.014101748
197	0xbc1fe7f2	-0.00975989
198	0x3c81dfff	0.01585388
199	0x3bd6058b	0.0065314225
200	0xbc1ba807	-0.00950051
201	0x3ac1b5ca	0.0014778909
202	0xbbc83939	-0.006110337
203	0x3b6ac1b7	0.003582103
204	0x3bdba896	0.0067034466
205	0x3bc6de6a	0.0060689943
206	0xbad725a0	-0.0016414411
207	0xbb9f0407	-0.004852775
208	0x3c359dc4	0.011084978
209	0xbc433ed8	-0.011916839
210	0x3c47d88b	0.012197624
211	0xbb3e0e4a	-0.0029000216
212	0x3bb6323a	0.0055601867
213	0xbb45feaf	-0.0030211618
214	0x3c85dc7f	0.016340492
215	0x3c77981b	0.015111948
216	0xbbc549d8	-0.0060207658
217	0xbbb9d87b	-0.0056715584
218	0xbbe85cae	-0.0070911264
219	0xbc09fa3c	-0.008421477
220	0x3b8710c0	0.00412187
221	0x3bfaa385	0.0076488876
222	0xbb8fd41d	-0.0043892995
223	0xbbfd7fa4	-0.007736163
224	0xba149f31	-0.00056694733
225	0x3bb68743	0.0055703237
226	0x3b776924	0.0037751878
227	0x3c710794	0.014711279
228	0xbb1a1de4	-0.0023516351
229	0x3b7cfba2	0.0038602133
230	0xbbb658e9	-0.005564798
231	0xbbd2966a	-0.006426622
232	0x3c8c151e	0.017099913
233	0x3b9ee7fa	0.004849431
234	0x3c05baeb	0.0081622405
235	0x3bc4e93e	0.00600925
236	0xbc5119de	-0.012762515
237	0xbb23db4e	-0.0025002542
238	0xbc146f29	-0.009059706
239	0xbbd33c6b	-0.0064464114
240	0x3b5b77d3	0.003348817
241	0xbbe99f5f	-0.007129594
242	0x3baee9f2	0.005337947
243	0x3a0083e2	0.00049024646
244	0xbbea73d1	-0.0071549197
245	0x3a840709	0.0010072897
246	0x3bc7925e	0.0060904464
247	0x3c29d679	0.010366076
248	0xbc89af6f	-0.016807286
249	0x3b63544e	0.00346877
250	0xbc8f3d93	-0.017485416
251	0xbbd57a79	-0.006514844
252	0xbc0cdd1d	-0.008597639
253	0xba40de27	-0.0007357322
254	0xbc2059e6	-0.009787058
255	0xbc313561	-0.010815949

base_model.model.transformer.h.2.attn.c_attn.lora_A.weight f4 [4, 768]
0	0xbcb7cb2e	-0.02243575
1	0x3d4bc77b	0.049750786
2	0xbc3f5760	-0.011678547
3	0x3cfa3a20	0.030545294
4	0xbc204a02	-0.00978327
5	0xbb9b55b0	-0.0047404394
6	0xbd2bfcbf	-0.041989084
7	0x38bb7f10	8.940522e-05
8	0x3d3f5d46	0.04671981
9	0xbcae8797	-0.021304889
10	0x3cc42501	0.023943426
11	0xbd0086ae	-0.03137844
12	0x3d10ae68	0.035322577
13	0x3d2a977f	0.041648384
14	0x3b8e465c	0.0043418836
15	0xbcc1b0ee	-0.023643937
16	0x3b5695a6	0.0032743006
17	0xbcdb89ec	-0.026799165
18	0xbd1f0332	-0.038821407
19	0xbaf641c7	-0.0018787914
20	0x3ce7a50a	0.028276939
21	0x3c944fe4	0.018104501
22	0x3c3f0ac4	0.011660282
23	0x3a269f83	0.00063561666
24	0xbbae0826	-0.00531103
25	0xbd4473b1	-0.047961894
26	0xbd2c0803	-0.041999828
27	0x3d0f80b8	0.035034865
28	0x3d164279	0.036684487
29	0xbb97c72d	-0.004631898
30	0x3c5efb63	0.01360974
31	0x3d577d28	0.052609593
32	0xbd12cd91	-0.035840575
33	0x3b7ef17d	0.0038901262
34	0x3d0898b8	0.03334877
35	0x3d0b5afe	0.034022324
36	0x3c05a7e8	0.008157708
37	0xbd4e6b67	-0.050395396
38	0xbd287a81	-0.041132454
39	0xbc54084e	-0.012941433
40	0x3d0f09be	0.0349214
41	0x3ccfc866	0.025364112
42	0xba808dcb	-0.0009807883
43	0x3c1f6cab	0.009730498
44	0x3d0d372b	0.03447644
45	0x3d60652e	0.054783992
46	0x3d133bd3	0.035945725
47	0xbcfef973	-0.031124806
48	0xbcc6f811	-0.02428821
49	0xbb9b6026	-0.0047416864
50	0xbcc5a4e8	-0.024126485
51	0xbbe931a6	-0.0071165143
52	0x3b8668c0	0.0041018426
53	0x3cba8dea	0.022772748
54	0x39649953	0.00021800892
55	0x3ce4dc7a	0.027937163
56	0x3cff8f44	0.031196244
57	0xbc11c97d	-0.008898136
58	0x3c29313b	0.010326679
59	0x3ceed974	0.029156424
60	0x3cb25a2d	0.021771515
61	0xbcb665b9	-0.022265302
62	0xbcc1b1bc	-0.02364432
63	0x3c588029	0.0132141495
64	0x3d6252c2	0.055254705
65	0x3d59eb51	0.05320293
66	0x3c48f08a	0.01226438
67	0xbc0e3127	-0.008678711
68	0x3c81ef4c	0.015861176
69	0x3d00e72e	0.03147047
70	0xbbddf163	-0.0067731603
71	0x3d1247c8	0.035712987
72	0xbc600395	-0.013672729
73	0x3d4bff68	0.04980412
74	0xbc97fe63	-0.018553918
75	0xbd1dfec1	-0.03857303
76	0x3d0bea16	0.03415879
77	0xbb0276c2	-0.001990721
78	0xbcbbc5c8	-0.022921458
79	0x3c7e42f7	0.015518895
80	0x3d5d0412	0.05395896
81	0xbcc11f18	-0.023574397
82	0x3ccaef7f	0.024772404
83	0xbd08be60	-0.03338468
84	0xbce02c62	-0.027364913
85	0xbcc21408	-0.023691192
86	0x3d2da97a	0.042397954
87	0x3c0d71e3	0.00863311
88	0xbd692507	-0.056920078
89	0x3c83eb2a	0.016103346
90	0xbd758202	-0.05993844
91	0x3c990726	0.018680166
92	0xbc923c69	-0.017851071
93	0xbca1a8cd	-0.01973381
94	0x3cd0c8ab	0.025486311
95	0x3b432c71	0.0029781128
96	0x3caab320	0.020837367
97	0x3d172e43	0.036909353
98	0xbb19cfa6	-0.0023469715
99	0xbd408236	-0.04699918
100	0x3d2f96f1	0.04286856
101	0xbcb1b56a	-0.02169295
102	0x3d2d68a2	0.042336114
103	0xbce347b8	-0.02774416
104	0xbcf84e14	-0.030310668
105	0xbcdc464d	-0.02688899
106	0xbcc10b66	-0.023565006
107	0x3c0d2a03	0.008615973
108	0xbd1a3abf	-0.03765368
109	0x3d34e67c	0.04416512
110	0xbceb8bc5	-0.02875317
111	0xbc86fd31	-0.016478153
112	0xbc7eeec5	-0.015559857
113	0xbc8c974d	-0.01716199
114	0x3c93892b	0.018009743
115	0xbbc0fb7f	-0.0058893557
116	0x3b18307f	0.0023222265
117	0x3c8dcd97	0.017309947
118	0x3cb719a9	0.022351103
119	0xbc491c25	-0.012274777
120	0x3ca59235	0.020211319
121	0xbd30537a	-0.04304836
122	0xbd22ef59	-0.03977904
123	0x3d020e7b	0.03175209
124	0xbcd60c23	-0.026128834
125	0x3d377326	0.04478755
126	0xbca2e472	-0.019884322
127	0x3b5f1d0b	0.003404441
128	0x3ca8b8d0	0.020595938
129	0xbc656239	-0.014000469
130	0x3b5c62d9	0.0033628254
131	0x3ac1bf12	0.0014781675
132	0x3b3db3a1	0.0028946178
133	0x3c0b9d23	0.008521351
134	0x3c2a1988	0.010382064
135	0xbd6643e9	-0.056217108
136	0x3c7d7f2a	0.015472213
137	0x3c7ad3e9	0.015309312
138	0xbbc17b2e	-0.0059045767
139	0x3c3cd971	0.011526451
140	0x3d1b4696	0.037909113
141	0xbc486d54	-0.012233097
142	0x3d399c54	0.0453151
143	0xbca5587b	-0.020183792
144	0x3b85dcc6	0.004085156
145	0xbc962da5	-0.018332312
146	0xbd2ffd1e	-0.042966
147	0x3d2d4f31	0.04231185
148	0xbc005145	-0.007831876
149	0xbcc2f815	-0.023799935
150	0xbd0e5f46	-0.03475883
151	0x3d28f552	0.04124958
152	0xba33d8ba	-0.0006860603
153	0xbb08d2fb	-0.0020877707
154	0x3bdadfe9	0.006679524
155	0xbd0f9a95	-0.03505953
156	0xbd5631f4	-0.052293733
157	0xbd0ef446	-0.034900926
158	0x3c390550	0.0112927705
159	0xbca85e1c	-0.020552687
160	0xbc3f5113	-0.011677044
161	0xbbb8a3a3	-0.0056347414
162	0xbcd2fe29	-0.025755959
163	0x3c1fd97a	0.00975644
164	0x3c6401a8	0.0139164105
165	0xbcf4a5d0	-0.029864222
166	0xbc8bc624	-0.017062254
167	0xbcc2dfef	-0.02378842
168	0xbd1dcae0	-0.038523555
169	0x3d3d7041	0.04624963
170	0xbcf7a99e	-0.030232247
171	0xbd499715	-0.04921635
172	0x3d0ee753	0.034888577
173	0xbbd55345	-0.0065101706
174	0xbd04a342	-0.032382257
175	0xbc2f4549	-0.010697671
176	0xbd580117	-0.052735414
177	0x3cd91c82	0.026502851
178	0xbd549cf5	-0.0519075
179	0xbcb992f7	-0.022653086
180	0xbbd7ce67	-0.0065858844
181	0xbd0d1f5d	-0.03445374
182	0xbb8f5897	-0.0043745744
183	0xbc36fce3	-0.011168691
184	0xbada6bc8	-0.0016664201
185	0xbcb037da	-0.021511007
186	0xbcb86be5	-0.022512386
187	0xbcac8d00	-0.021063328
188	0xbc7926d8	-0.015207015
189	0x3b262e64	0.002535724
190	0x3d1f39c0	0.038873434
191	0x3d5b5f1b	0.053557497
192	0x3cd96ba0	0.026540577
193	0x3bf6ce50	0.0075319186
194	0xbcc66e3b	-0.024222484
195	0x3c9387e2	0.01800913
196	0xbcea9d03	-0.028639322
197	0xbcd2d5cc	-0.025736712
198	0x3c35d884	0.011098985
199	0x3bd46072	0.0064812237
200	0xbcdbcbc3	-0.02683056
201	0xbccba57f	-0.024859188
202	0xbccfd909	-0.025372045
203	0x3beb7149	0.0071851355
204	0xbb9e8d14	-0.004838595
205	0xbd09a914	-0.03360851
206	0x3d049129	0.032364998
207	0x3c38289e	0.011240153
208	0xbd3e47aa	-0.046455063
209	0x3cbcb3eb	0.02303501
210	0xbb7c4e6e	-0.0038498896
211	0x3b6f5970	0.0036521815
212	0x3cd837ce	0.026393797
213	0xbbbaf60a	-0.0057055997
214	0xbcbae724	-0.022815295
215	0x3c3fdc6e	0.011710269
216	0x3c2d43b4	0.010575224
217	0xbcc34450	-0.023836285
218	0x3c43684f	0.011926725
219	0x3c9d45a8	0.019198254
220	0xbcb06878	-0.02153419
221	0x3cefafee	0.029258694
222	0x3a7d0170	0.0009651398
223	0xbcd74084	-0.02627588
224	0x3ca72756	0.020404499
225	0xbbc4356d	-0.005987814
226	0x3d53d814	0.05171974
227	0xbcebfca2	-0.028806988
228	0x3d0fab98	0.035075754
229	0xbc9faeff	-0.019492624
230	0x3bb3ca90	0.005486794
231	0xbd6a345d	-0.057178844
232	0x3a6c7403	0.00090199726
233	0xbc8b94e0	-0.017038763
234	0xbd2faeb7	-0.04289123
235	0xbb139819	-0.0022521077
236	0x3cf8a9c2	0.030354384
237	0x3b9d2de2	0.0047967294
238	0x3b8fe07b	0.004390774
239	0x3c84f84f	0.016231684
240	0x3d0a2470	0.033726156
241	0x3bdeac36	0.0067954315
242	0x3d2a3fdf	0.04156482
243	0x3d0f6194	0.035005167
244	0xbc1d0de1	-0.0095858285
245	0xbd2d72b3	-0.042345714
246	0x3d1f5561	0.038899783
247	0xbd30f16a	-0.04319898
248	0xbc499b19	-0.012305045
249	0x3ca3ac30	0.019979566
250	0xbd25f6c3	-0.040518533
251	0x3c08ab0d	0.008341563
252	0xbba0bdf3	-0.004905456
253	0x3b3dbb1f	0.0028950644
254	0xbbdd43e1	-0.0067524766
255	0xbc658078	-0.01400768

base_model.model.transformer.h.2.attn.c_attn.lora_B.weight f4 [2304, 4]
0	0x3c9d9217	0.0192347
1	0xbc688bad	-0.014193458
2	0xbc13ce64	-0.009021375
3	0x3c97bc2f	0.01852235
4	0xbb0b7cb4	-0.0021284046
5	0x3bebded3	0.0071981936
6	0xb89cd572	-7.478417e-05
7	0xbc25956a	-0.010106424
8	0xba4c3b1c	-0.00077907904
9	0x3a40c7e8	0.0007354007
10	0x3c0a0c6b	0.008425812
11	0x3b4720ad	0.0030384467
12	0x3c5b1eae	0.013374014
13	0xbc327b1b	-0.010893608
14	0xbb2c757d	-0.0026315146
15	0x3c9389b5	0.01801
16	0xbc9a4cbe	-0.018835422
17	0x3ca74fb2	0.020423744
18	0x3c7b0876	0.015321841
19	0xbc766ee9	-0.0150410915
20	0xbb90846b	-0.0044103167
21	0x3bebc0d5	0.007194618
22	0x3b665a05	0.003514887
23	0x3bd64c64	0.006539868
24	0x3c5e2547	0.013558692
25	0x3b812293	0.003940889
26	0x3c207467	0.0097933775
27	0x3c856c28	0.016286924
28	0xbbbc510d	-0.0057469667
29	0x3c4b2317	0.012398503
30	0x3c73b760	0.014875263
31	0xbbc3c2ce	-0.0059741503
32	0x3bb98dee	0.0056626713
33	0x3c9a575d	0.018840486
34	0x3b1c640b	0.0023863341
35	0x3b670fed	0.0035257295
36	0x3c132735	0.008981516
37	0xbbda65a2	-0.0066649476
38	0xbb87982a	-0.0041380124
39	0x3c408526	0.011750495
40	0x3be7ce6d	0.0070741684
41	0x3b73acd6	0.0037181876
42	0x3c273325	0.010205065
43	0x3bd9e6d8	0.006649833
44	0xbb1ef4dc	-0.0024254834
45	0xbb315728	-0.0027060006
46	0x3a834d0b	0.0010017467
47	0xbb210072	-0.0024566916
48	0xbc1d379b	-0.009595777
49	0x3c6c06d1	0.014405922
50	0x3c033b6e	0.008009775
51	0xbb9ff08d	-0.004880971
52	0xbbf3da71	-0.0074418117
53	0x3bb069e3	0.0053837164
54	0x3c0a0c0a	0.008425722
55	0xbb4b61ef	-0.0031033715
56	0x3c5b0c87	0.013369686
57	0xbbdaab0e	-0.0066732233
58	0x3b7d1da4	0.0038622404
59	0x3c8fd138	0.017555818
60	0xbb685121	-0.0035448747
61	0xba0dc1fe	-0.000540763
62	0x3b07aa40	0.0020700842
63	0xbc4b2908	-0.012399919
64	0x3c0f3fa4	0.0087432
65	0xbadd43c9	-0.0016881163
66	0xb954df0a	-0.00020300984
67	0x3c7f083e	0.01556593
68	0x3c18e204	0.00933123
69	0x3b310596	0.0027011386
70	0x3bf84a29	0.0075772
71	0x3c5633fd	0.013073918
72	0x3bd31f51	0.006442942
73	0xba7fbed5	-0.0009755914
74	0x3ba9ded8	0.0051840357
75	0x3bbbb970	0.005728893
76	0x3b69511c	0.0035601323
77	0xbc5fb55c	-0.013654079
78	0x3b40e7b3	0.0029434978
79	0x3b5f4b52	0.0034071994
80	0x3bd3a824	0.006459253
81	0xbca2efb3	-0.019889688
82	0xbbd72a1b	-0.0065662987
83	0x3b8e96e2	0.0043514827
84	0x3bbd63a6	0.0057797013
85	0x3ae5028c	0.0017472073
86	0x3b0a41b8	0.00210963
87	0x3bb319ed	0.005465737
88	0x3bfef9e4	0.007781254
89	0xbc50eb93	-0.012751478
90	0xbb5120e9	-0.0031910485
91	0x3c18641a	0.00930121
92	0x3b77e6c0	0.0037826747
93	0xbbf94858	-0.007607501
94	0xbbd76eb5	-0.0065744766
95	0x3c0d4874	0.008623231
96	0x3b8969f2	0.004193538
97	0xba333e43	-0.0006837586
98	0xbc8bc02e	-0.017059412
99	0x3bec937a	0.007219729
100	0x3c10ab0d	0.008829844
101	0xbc5fe5d1	-0.013665632
102	0xba69e15d	-0.00089218264
103	0x3c4a47dc	0.012346234
104	0x3bf336c5	0.0074223005
105	0x391cd9af	0.00014958413
106	0x3c06b291	0.0082212845
107	0x3c94a841	0.018146636
108	0x3bf6f69b	0.007536722
109	0xbc827737	-0.015925987
110	0xbb9e508d	-0.0048313797
111	0x3c84a093	0.016189849
112	0x3bdb5ad4	0.006694177
113	0xbad34cb0	-0.0016120877
114	0x3acca755	0.0015613834
115	0x3b5afcfc	0.003341495
116	0x3afe5f49	0.0019407059
117	0xbc9920c9	-0.018692391
118	0xbc9b8fa6	-0.018989395
119	0xbc0b3317	-0.0084960675
120	0xbb821d7d	-0.0039708004
121	0x3b487f0d	0.0030593306
122	0x3c162fb0	0.009166643
123	0xbb846dba	-0.0040414007
124	0xbb5f21d0	-0.0034047253
125	0xbace0ce2	-0.0015720392
126	0x3b9e9976	0.0048400713
127	0x3b898f06	0.004197958
128	0x3b47308e	0.003039393
129	0x3b2632f3	0.0025359958
130	0x39bb3959	0.00035710147
131	0x3b8eb850	0.004355468
132	0x3bd74a2d	0.0065701217
133	0xbc243ad7	-0.010023794
134	0x3b81c634	0.003960395
135	0xba01f59c	-0.0004957558
136	0xb9f8c64c	-0.0004744999
137	0x3c229393	0.00992288
138	0x3b16fcd9	0.0023038893
139	0xbc01d6d7	-0.007924757
140	0xba54b8d1	-0.0008114698
141	0x3b7d17d0	0.003861893
142	0xb9ded2e6	-0.0004250027
143	0xbc18eccc	-0.0093338005
144	0xbbe7dad4	-0.007075647
145	0x3aadfda8	0.0013274448
146	0x3c2c6e6a	0.010524372
147	0xbc776395	-0.015099426
148	0x3b16306b	0.0022917043
149	0xbc5b4015	-0.013381978
150	0xbad9b3d3	-0.0016609378
151	0xbb9f340f	-0.004858501
152	0xbb654331	-0.0034982676
153	0x3b2ff049	0.0026846102
154	0xbbde0947	-0.0067760083
155	0xba1945f0	-0.00058469083
156	0x3bb83b6a	0.005622317
157	0xbb2c9833	-0.0026335835
158	0xbb880405	-0.00415087
159	0x3bde5383	0.0067848577
160	0x3c0545d8	0.008134328
161	0xbc02ee69	-0.007991412
162	0xbc26c262	-0.01017818
163	0x3bf54d6e	0.007486037
164	0x3aaa6344	0.0012999554
165	0xbc0f77fe	-0.008756636
166	0xbc4b0536	-0.012391379
167	0xbc25f711	-0.010129706
168	0xbae46515	-0.0017425144
169	0xba0a02ba	-0.00052646885
170	0x3bd8bc5f	0.0066142525
171	0xbad812e6	-0.0016485124
172	0x3bc2c354	0.005943695
173	0xbc8f72e4	-0.017510839
174	0xbc9d4af1	-0.019200774
175	0xbb89e100	-0.0042077303
176	0xbbe9e750	-0.0071381703
177	0x3c9fb3a0	0.019494832
178	0x3b90d5b3	0.004420006
179	0x3be510fb	0.0069905496
180	0x3c2a36a5	0.010389005
181	0xbc18c76b	-0.009324889
182	0xbc25c1c7	-0.010117001
183	0x3be9c42f	0.0071339826
184	0xbb2318a7	-0.002488652
185	0xbab9cba0	-0.0014175065
186	0xbaf9e5e3	-0.0019065704
187	0x3c2e333f	0.010632335
188	0xba80e70d	-0.0009834483
189	0xbc01489b	-0.007890846
190	0x3a0e490a	0.0005427754
191	0xbbf9742f	-0.007612727
192	0xba6bcdb0	-0.00089951884
193	0xbc31f51c	-0.010861661
194	0xbbae1d59	-0.005313557
195	0xba548a34	-0.0008107752
196	0xbc16aa6a	-0.009195903
197	0x3b9931ed	0.004675141
198	0xbbda8b87	-0.006669465
199	0xbc585dca	-0.013205955
200	0x3b71aebb	0.003687783
201	0xbc2509a1	-0.0100730965
202	0xbc4e1bd3	-0.012579876
203	0xbad09786	-0.0015914298
204	0x39deff14	0.00042533188
205	0x3c35f736	0.011106303
206	0x3c802545	0.015642771
207	0xbb4e8827	-0.0031514259
208	0x3b302460	0.002687715
209	0x3c0a57a6	0.008443749
210	0x3b9163f4	0.004436964
211	0x3c023808	0.007947929
212	0x3c1239b2	0.008924888
213	0xbc000282	-0.007813098
214	0xbbf8ed41	-0.0075966422
215	0xbc08aa4b	-0.008341382
216	0x3b58544c	0.003300923
217	0xbba93106	-0.0051633148
218	0x3a5a5e91	0.00083301315
219	0x3a98b069	0.0011649254
220	0xbc0f2788	-0.008737452
221	0xbb11eeef	-0.002226766
222	0x3b8ac766	0.004235196
223	0xbc5e3e1e	-0.013564615
224	0x3c342217	0.010994456
225	0xbc80295a	-0.015644718
226	0xbb945579	-0.0045267907
227	0x3c966814	0.018360175
228	0x3bc912f4	0.0061362926
229	0xbc8aa44f	-0.016924052
230	0xbbbcd197	-0.0057622897
231	0xbb588699	-0.003303921
232	0xbb930c43	-0.0044875457
233	0xbbd7aa22	-0.0065815607
234	0x3c110ddb	0.008853401
235	0xbc014991	-0.007891075
236	0xbc20a7b6	-0.00980561
237	0x3c92ec3b	0.01793491
238	0x3c44e989	0.01201857
239	0xbc416f0d	-0.011806262
240	0x3ab28f11	0.0013622959
241	0x3bf45fa9	0.0074576926
242	0xbc013450	-0.007886007
243	0x3a454c7c	0.00075263507
244	0xbc49d0e6	-0.012317872
245	0xba031f90	-0.00050019566
246	0xbc073035	-0.00825124
247	0xbc9fa632	-0.019488428
248	0x3a6cce0b	0.00090333883
249	0xbb9fb8bb	-0.0048743165
250	0xbc29284d	-0.01032455
251	0x3b3ac83d	0.00285007
252	0xbb1cdc93	-0.0023935183
253	0x3be2024b	0.006897246
254	0xbacb2bcd	-0.0015500725
255	0x3b1e5668	0.002416039

base_model.model.transformer.h.3.attn.c_attn.lora_A.weight f4 [4, 768]
0	0x3c537a3a	0.012907559
1	0x3d6fd43e	0.05855202
2	0xbcefc82e	-0.029270258
3	0x3b11658e	0.0022185775
4	0xbc3741b2	-0.011185097
5	0x3b112d90	0.0022152402
6	0x3bd133d5	0.0063843527
7	0x3c11f8b3	0.008909392
8	0x3d2cd08c	0.042191073
9	0x3cf99917	0.030468507
10	0x3c84e4f1	0.016222449
11	0xbce81f95	-0.028335372
12	0x3d246d72	0.040143438
13	0xbaa013b7	-0.0012212907
14	0x3c992584	0.018694647
15	0x3b492fbc	0.0030698618
16	0x3bffbb7d	0.0078043328
17	0xbc8a7b27	-0.016904427
18	0xbcef112a	-0.02918299
19	0x3cc894fe	0.024485108
20	0x3d0edc22	0.034877904
21	0x3c12f9e1	0.008970709
22	0xbd3a1dd0	-0.045438588
23	0xbd304efc	-0.043044075
24	0x3cd1b759	0.025600122
25	0xbd4eb221	-0.050462846
26	0xbce1b916	-0.027554076
27	0x3cc04857	0.023471994
28	0x3acfb1a8	0.0015845792
29	0xbce1cbe6	-0.027563047
30	0x3cacff4c	0.021117829
31	0x3cca1cde	0.024671968
32	0x3d519873	0.051170778
33	0xbaed7146	-0.0018115423
34	0xbd12867a	-0.035772778
35	0x3c8acf10	0.016944438
36	0x3c2fec5e	0.010737507
37	0xbd08cb62	-0.033397086
38	0xbc337e1b	-0.010955359
39	0x3cc32c63	0.023824876
40	0xbbd5676d	-0.0065125735
41	0xbd20c0bf	-0.039246317
42	0x3caf0db0	0.021368831
43	0x3cb023df	0.02150148
44	0x3cb61870	0.02222845
45	0x3d475e72	0.048674054
46	0x3c0b490e	0.008501304
47	0xbd0d3f91	-0.03448445
48	0x3c549d5e	0.012976972
49	0x3d156f88	0.036483318
50	0x3c97dcca	0.018537898
51	0xbca9ad54	-0.020712532
52	0x3c87c8c8	0.016575232
53	0x3d13e540	0.0361073
54	0x3c90dc4f	0.017683176
55	0x3c9ae636	0.018908601
56	0x3c0a4233	0.008438635
57	0x3c2f358c	0.010693919
58	0x3cd72a5e	0.02626532
59	0x3c66fcdf	0.014098375
60	0x3d3ef952	0.04662449
61	0xbc918b1b	-0.017766526
62	0xbd35d3f0	-0.044391572
63	0xbcc73d44	-0.024321206
64	0x3cc4e93d	0.024036998
65	0x3cd33d8d	0.025786186
66	0xbb0a9a77	-0.0021149197
67	0x3a0a5cb4	0.0005278096
68	0xbca452db	-0.02005904
69	0xbb2230fd	-0.0024748438
70	0xbc89209d	-0.016739184
71	0xbc4b1b01	-0.012396575
72	0xbc5905ba	-0.013245994
73	0x3d3921ac	0.045198128
74	0xbd324acf	-0.043528374
75	0x3c6e9652	0.014562206
76	0x3c9ca79b	0.01912289
77	0x3ccb0e39	0.024787055
78	0xbc6daa85	-0.014505987
79	0xb96d12a9	-0.00022609033
80	0x3cc0acb5	0.023519853
81	0x3cea3c4a	0.028593201
82	0xbc5770c2	-0.013149442
83	0xbb8242c2	-0.0039752433
84	0xbc52d78b	-0.012868772
85	0xbd548114	-0.05188091
86	0x3bfe1d67	0.00775497
87	0x3ca5f40b	0.02025797
88	0xbd1733f9	-0.0369148
89	0x3bc6a4d4	0.0060621295
90	0xbd5b5486	-0.053547405
91	0x3d0c0075	0.034180123
92	0x3c52170e	0.0128228795
93	0xbd69803b	-0.057007056
94	0x3d0ee975	0.03489061
95	0xbba20188	-0.00494403
96	0xbc84f733	-0.016231155
97	0x3c0180ea	0.007904271
98	0xbd63c9d9	-0.05561242
99	0xbd697707	-0.05699828
100	0x3bf97ceb	0.0076137683
101	0xbca9b764	-0.02071733
102	0x3c7984dc	0.01522943
103	0xbd1d938d	-0.038470794
104	0xbcf3d4df	-0.02976459
105	0xbc639d80	-0.013892531
106	0xbc07d90d	-0.008291495
107	0x3ba97acf	0.0051721106
108	0x3b39b726	0.0028337925
109	0xbc3ab88f	-0.011396541
110	0xbb467a87	-0.0030285434
111	0xbd1d8001	-0.038452152
112	0x3d2a9503	0.041646015
113	0x3c0146d1	0.007890419
114	0x3d3fe7c1	0.046851877
115	0x3d0b425e	0.03399884
116	0xbd3488a6	-0.04407563
117	0x3cdddf1b	0.027083924
118	0x3cb275f0	0.021784753
119	0xbd0411d9	-0.032243583
120	0xbc72ccc2	-0.014819326
121	0xbc60cf9c	-0.013721373
122	0xbcb145f3	-0.0216398
123	0x3d581ab9	0.05275986
124	0xbd05091c	-0.03247939
125	0x3c5c5ecc	0.013450336
126	0xbcdcf3a9	-0.026971655
127	0xbc3cb8c7	-0.011518664
128	0x3d6acdcd	0.057325173
129	0x3c14e0fb	0.009086843
130	0x3cfcab62	0.03084344
131	0xbd2b4b4c	-0.041819856
132	0xbaee0e5d	-0.001816224
133	0xbb99e59e	-0.004696562
134	0xbc3f2171	-0.011665688
135	0xbd24140e	-0.04005819
136	0x3d12b332	0.035815425
137	0xbcd1815e	-0.025574382
138	0x3d6748a7	0.05646577
139	0x3d1363fe	0.03598403
140	0xbc507d1d	-0.012725142
141	0xbc8a3d61	-0.01687497
142	0x3d26bc2c	0.0407068
143	0xbd409d4c	-0.04702501
144	0xbd69c0ea	-0.057068743
145	0xbd3e462d	-0.046453644
146	0x3c75a6f5	0.014993419
147	0xbca6e206	-0.020371448
148	0xbd067784	-0.032828823
149	0xbd2c86e1	-0.042120818
150	0xbd6371b3	-0.055528354
151	0x3d63feea	0.055663027
152	0x3d302c11	0.043010775
153	0xbc9820a0	-0.018570244
154	0xbbddb171	-0.0067655374
155	0xbc4cd095	-0.012500902
156	0xbc4d6f40	-0.012538731
157	0xbd0aa6ae	-0.033850364
158	0x3bb22322	0.005436317
159	0xbc3e721a	-0.011623884
160	0xbd2dc5d9	-0.04242501
161	0x3cd99046	0.026558053
162	0xbcc36b2e	-0.023854818
163	0x3cad81b8	0.021180019
164	0xbb5b6f53	-0.0033483102
165	0x3d0865aa	0.03330008
166	0xbb955450	-0.00455717
167	0x3ca186d0	0.019717604
168	0x3c115e9a	0.008872652
169	0xbb7d321c	-0.0038634604
170	0x3cb5b3cd	0.022180462
171	0xbd7d9891	-0.061913077
172	0x3cdd64d3	0.027025616
173	0xbb98f3af	-0.004667721
174	0xbaeff08b	-0.001830594
175	0x3b10a67d	0.002207189
176	0x3c047fe8	0.008087136
177	0xbcd3045e	-0.025758918
178	0xbcfb9c2a	-0.030714113
179	0xbd526d55	-0.0513738
180	0x3c0c189a	0.008550787
181	0xbd3aac8f	-0.04557472
182	0x3c100710	0.008790746
183	0x3cd44729	0.025912838
184	0x3d0bd1ca	0.034135617
185	0xbb856b0c	-0.004071599
186	0xbc64f2c2	-0.013973894
187	0xb831cf2e	-4.239304e-05
188	0xbb890e20	-0.004182592
189	0x3cc7b0b1	0.024376245
190	0xbbe61323	-0.0070213242
191	0x3c6aa6b2	0.01432197
192	0x386a1426	5.5808712e-05
193	0x3880e0fc	6.145422e-05
194	0x3aea9557	0.001789729
195	0x3c2c9e91	0.010535852
196	0xbcc747b1	-0.024326177
197	0x3c855d0c	0.01627972
198	0xbd218b7e	-0.03943967
199	0x3d2f47ff	0.04279327
200	0xbcf4a453	-0.029863512
201	0x3b3ee39b	0.0029127363
202	0x3d05ae39	0.032636855
203	0xbc1ea622	-0.009683164
204	0x3d1621bb	0.03665326
205	0x3d1c6ac5	0.03818776
206	0xbb5427a0	-0.003237225
207	0x3d392172	0.04519791
208	0xbc916678	-0.017749056
209	0x3d00a168	0.03140393
210	0xbd58da39	-0.05294249
211	0x3d14f74d	0.036368657
212	0x3d0ad5ee	0.033895425
213	0xbccada24	-0.02476222
214	0xbd33c442	-0.043888338
215	0x3be0f59a	0.0068652155
216	0xbcbd3191	-0.023094924
217	0xbd3c3c6f	-0.04595607
218	0xba99f19d	-0.001174498
219	0xbc5bc3e2	-0.013413401
220	0xbbdd3147	-0.006750259
221	0x3d4fa26a	0.050692
222	0xbc5937a7	-0.013257897
223	0xbd34cfcb	-0.04414348
224	0x3d61e76a	0.055152334
225	0x3c3ebbe5	0.011641477
226	0xbc0dd057	-0.008655629
227	0x3c9ea7fa	0.019367207
228	0x3d2f6bee	0.04282754
229	0x3d3dfae9	0.046381865
230	0xbb871143	-0.004121931
231	0x39f51de0	0.000467523
232	0xbd2dc322	-0.04242242
233	0xbc7fbc50	-0.015608862
234	0x3adb1844	0.0016715606
235	0x3c982e60	0.0185768
236	0xbd68b140	-0.056809664
237	0x3c1460eb	0.00905631
238	0x3bb141d0	0.005409457
239	0xbcbc686b	-0.02299901
240	0xbcd472d7	-0.025933666
241	0x3c906626	0.017626833
242	0x3cbc7750	0.023006111
243	0x3bdbb1ae	0.0067045307
244	0xbd319a24	-0.04335989
245	0x3cbaf4f3	0.022821879
246	0x3bacbb28	0.005271334
247	0xbcb18cd9	-0.021673607
248	0xbd265294	-0.040606096
249	0x3c829464	0.015939899
250	0x3d14141d	0.036151994
251	0x3c9659e9	0.01835342
252	0x3ba47837	0.0050192135
253	0x3c79bc7b	0.015242691
254	0xbd6355a1	-0.055501584
255	0xbce75c70	-0.02824232
